netHetero.pt (torch, 408763 bytes, 4 tensors)

fc1.weight f4 [128, 784]
0	0xbe544afa	-0.20731726
1	0x3e5c66e4	0.21523625
2	0xbe4875b1	-0.19576146
3	0x3e4ae336	0.19813237
4	0xbe4b0c6b	-0.19828956
5	0xbe49780d	-0.19674702
6	0xbe4e09d6	-0.2012094
7	0x3e56f03f	0.20990084
8	0xbe5d0542	-0.21584037
9	0x3e5ca2f1	0.21546532
10	0xbe4882fd	-0.19581218
11	0xbe4f021a	-0.20215645
12	0xbe5d360d	-0.2160265
13	0xbe6f5e33	-0.23375778
14	0xbe4a2925	-0.19742258
15	0x3e4d3949	0.20041384
16	0xbe6a5dd2	-0.22887352
17	0x3e6149c3	0.22000794
18	0x3e4b9689	0.19881643
19	0x3e70c38b	0.23512094
20	0x3e66157a	0.2246913
21	0x3e472af3	0.19449978
22	0xbe570f65	-0.21001966
23	0x3e61b08e	0.22040007
24	0xbe57756a	-0.21040884
25	0x3e4b60b0	0.19861102
26	0x3e4965d3	0.19667749
27	0xbe478f1b	-0.19488184
28	0x3e486f4a	0.19573703
29	0x3e556859	0.20840587
30	0x3e5811b0	0.21100497
31	0x3e59c2a4	0.21265656
32	0x3e48cc03	0.19609074
33	0xbe8482ad	-0.25880948
34	0xbe604d49	-0.21904482
35	0xbe7342b1	-0.2375591
36	0xbe45de3c	-0.19323057
37	0x3e64cf05	0.22344597
38	0xbe902bed	-0.28158513
39	0xbe2e3998	-0.17014158
40	0xbe687360	-0.22700262
41	0x3dc136b9	0.09434266
42	0xbe2fc559	-0.17165126
43	0xbdf0dbaa	-0.117606476
44	0xbdce2dee	-0.10067354
45	0x3e3d91e0	0.18512678
46	0x3e2abe96	0.16674265
47	0x3e345027	0.176087
48	0x3e309128	0.17242873
49	0x3e460567	0.19337998
50	0x3e5f1bd4	0.2178796
51	0x3e5b7e66	0.21434936
52	0xbe796d90	-0.24358201
53	0xbe477b9f	-0.19480751
54	0xbe4e8c4f	-0.20170711
55	0x3e486f88	0.19573796
56	0x3e834d23	0.25644788
57	0xbe492d71	-0.19646241
58	0x3e74e8b8	0.239169
59	0x3e485d32	0.19566801
60	0xbe4b43ce	-0.19850084
61	0xbe4d3ff3	-0.20043926
62	0xbe70e340	-0.23524189
63	0x3d442d99	0.047895048
64	0xbe6697b8	-0.22518814
65	0xbdc5f8cf	-0.09666597
66	0xbe0c0389	-0.13673224
67	0xbd63e1e8	-0.055635363
68	0x3d04da46	0.032434724
69	0x3cb2953f	0.021799682
70	0xbd984a07	-0.074359946
71	0xbdd5ad5f	-0.104334585
72	0x3ca4d9cc	0.020123385
73	0xbc4c3b87	-0.012465364
74	0xbd903411	-0.07041181
75	0xbe16096d	-0.14652033
76	0xbdd77789	-0.105208464
77	0x3cb18d3a	0.021673787
78	0x3dd8b512	0.105814114
79	0xbea60083	-0.32422265
80	0x3e0a2ed0	0.1349442
81	0xbe50a3fa	-0.20375052
82	0xbe51c669	-0.20485844
83	0xbe5c56a7	-0.2151743
84	0xbe4eeaef	-0.20206808
85	0x3e48cf24	0.19610268
86	0x3e517fe6	0.20458946
87	0x3e58010a	0.21094146
88	0xbe6073ca	-0.2191917
89	0x3e1b2462	0.15150598
90	0x3de81797	0.113326244
91	0x3e2d527e	0.16926
92	0xbd84872f	-0.06471097
93	0xbcba7f58	-0.0227658
94	0x3dde7447	0.10862022
95	0x3dc31ad1	0.09526599
96	0x3de232d2	0.110448495
97	0x3c1fda75	0.009756674
98	0x3cc7a52b	0.02437075
99	0x3ca15bae	0.019697037
100	0x3d5a1fc2	0.053252943
101	0x3bda2c9a	0.006658149
102	0xbd8761e6	-0.066104695
103	0xbd29cb57	-0.041453686
104	0x3c55f636	0.01305919
105	0x3d0bed53	0.034161877
106	0x3d1ff145	0.039048452
107	0xbdd1cd79	-0.10244269
108	0xbc5c607c	-0.013450738
109	0xbdc48120	-0.09594941
110	0x3e49a10d	0.19690342
111	0xbe803dbd	-0.25047103
112	0xbe728112	-0.23682049
113	0x3e7bd796	0.24593958
114	0xbe49b2d4	-0.19697124
115	0x3e7e5196	0.2483581
116	0x3de87217	0.11349886
117	0x3e0b1e86	0.13585863
118	0x3da12502	0.07868387
119	0x3e33b1fb	0.17548363
120	0x3e25cc82	0.16191295
121	0x3e13c79b	0.14431612
122	0x3e5cae2c	0.21550816
123	0x3dc26648	0.09492165
124	0x3df52237	0.119694166
125	0x3db81266	0.08987884
126	0x3d81f701	0.063459404
127	0x3ded0beb	0.11574539
128	0x3df0028b	0.11719235
129	0x3e092d7f	0.13396262
130	0x3dbc381c	0.091903895
131	0x3d0c79cd	0.034295846
132	0x3d4bc7f7	0.04975125
133	0x3a27ec3e	0.0006405747
134	0x3dbea633	0.09309044
135	0xbd23939c	-0.039935693
136	0xbc83e6bd	-0.016101236
137	0xbcb01ef7	-0.02149914
138	0x3e914ed5	0.28380457
139	0xbe873362	-0.2640639
140	0x3e649d93	0.22325735
141	0x3e471f69	0.19445576
142	0x3e73e8a6	0.23819217
143	0xbe1b092e	-0.1514022
144	0xbd317ade	-0.043330066
145	0x3d853772	0.06504716
146	0x3ca361de	0.019944128
147	0x3dc3b5c2	0.09556152
148	0xbcbe39f8	-0.023221001
149	0xbd3f61c1	-0.046724085
150	0xbcd7abbc	-0.026327007
151	0x3cb6c212	0.022309337
152	0x3d4e7f42	0.05041433
153	0x3d5263e4	0.051364794
154	0x3d47b2bb	0.048754435
155	0x3da2d06e	0.07949911
156	0x3d838e55	0.06423632
157	0x3d47bdbc	0.04876493
158	0x3cb9f143	0.02269805
159	0x3e2a3c35	0.1662453
160	0x3d6e27dd	0.058143485
161	0x3dd19a3b	0.10234495
162	0x3e1dd985	0.15415008
163	0x3dde30ad	0.10849128
164	0x3d78ff43	0.06079031
165	0x3e2a3b94	0.1662429
166	0x3e24093a	0.16019145
167	0x3e0f066d	0.13967295
168	0xbe82bcf2	-0.2553478
169	0xbe34026d	-0.1757905
170	0xbe8137ac	-0.25237787
171	0x3e481e8f	0.19542907
172	0x3cf64219	0.030060815
173	0x3d786ec7	0.06065252
174	0x3d5b6a7b	0.053568345
175	0x3d013391	0.03154332
176	0x3d493286	0.04912045
177	0x3d82b1ff	0.06381606
178	0x3dc0d5b7	0.09415763
179	0x3c853ca2	0.016264264
180	0x3d0acc8b	0.033886474
181	0xbd14de19	-0.03634462
182	0xbce6ebc4	-0.028188594
183	0x3cab0095	0.020874301
184	0x3af062dc	0.0018340009
185	0x3ce244f6	0.027620774
186	0x3d0af207	0.03392222
187	0x3cb16f78	0.021659598
188	0xbbbbd190	-0.005731769
189	0x3bf25d9c	0.007396413
190	0x3d5b6831	0.05356616
191	0x3dc63305	0.096777
192	0xba0d22ac	-0.00053838897
193	0xbc91fbda	-0.017820287
194	0x3dbf96d1	0.09354938
195	0xbe697e21	-0.2280202
196	0x3e487e08	0.19579327
197	0x3e7f6662	0.249414
198	0xbe7f3e8d	-0.24926205
199	0x3d14a217	0.036287393
200	0x3e2686c3	0.16262345
201	0x3d3df881	0.04637957
202	0x3c3f6274	0.011681188
203	0x3d577110	0.05259806
204	0x3d76d186	0.06025841
205	0x3cf5d962	0.030010883
206	0x3bd9fe58	0.0066526346
207	0x3b1c276b	0.0023827206
208	0xbbdb1884	-0.006686272
209	0xbc5f7c4c	-0.0136404745
210	0xbb410349	-0.002945142
211	0xbd0861f2	-0.033296533
212	0x3c489310	0.012242094
213	0xbcaef0bf	-0.021355031
214	0x3ccf13e5	0.025278041
215	0xbbe8f6f0	-0.0071095154
216	0xbc87a797	-0.016559405
217	0x3c9829af	0.018574564
218	0xbbd59308	-0.0065177716
219	0x3b88cbc9	0.0041746837
220	0x3c5aead7	0.013361654
221	0xbd0ca5d2	-0.034337826
222	0x3e1a3bcc	0.15061873
223	0xbe48b974	-0.19601995
224	0xbe560bb3	-0.209029
225	0xbe655f4e	-0.22399637
226	0x3d237d21	0.039914254
227	0xbc17ff8c	-0.009277236
228	0x3da96fd3	0.08273282
229	0x3bc921cf	0.0061380635
230	0x3d41bf28	0.04730144
231	0x3d94cf12	0.07266058
232	0x3a5338cd	0.0008057475
233	0xbc78a855	-0.015176852
234	0x3ca5417e	0.02017283
235	0xbc7d257c	-0.0154508315
236	0xbc94d7bd	-0.018169278
237	0x3d4677d2	0.048454113
238	0x3c30c437	0.010788969
239	0xbc93afd6	-0.018028181
240	0xbcab5489	-0.020914333
241	0x3c851ebd	0.016250009
242	0x3ce46916	0.02788214
243	0x3d111721	0.035422448
244	0x3c1e5b74	0.009665359
245	0xbd8297b7	-0.063765936
246	0x3d978616	0.07398622
247	0x3dde2615	0.10847107
248	0x3d41da47	0.047327306
249	0xbcbdb94a	-0.023159642
250	0x3e95a532	0.29227597
251	0xbe0440e2	-0.12915376
252	0xbe901c0b	-0.28146395
253	0x3e5b1c56	0.21397528
254	0xbda9c1c9	-0.08288915
255	0xbdc53605	-0.09629444

fc1.bias f4 [128]
0	0xbca8eba2	-0.020620171
1	0x3d9ad801	0.07560731
2	0xbd896f35	-0.06710664
3	0x3d364cb7	0.044506755
4	0xbd51e0af	-0.051239666
5	0x3dd14533	0.10218277
6	0xbe176034	-0.14782792
7	0x3c5c095c	0.013429966
8	0x3e23918b	0.15973489
9	0x3dc574b5	0.09641401
10	0x3cbb00d3	0.022827541
11	0x3d8c7cfc	0.068597764
12	0xbc379573	-0.011205065
13	0x3dde8c41	0.10866595
14	0x3e2fd994	0.17172843
15	0xbda64427	-0.08118468
16	0x3dd00879	0.10157866
17	0x3de44442	0.11145832
18	0x3d486787	0.048926856
19	0x3d77d01e	0.06050121
20	0x3e00a9e2	0.12564805
21	0x3d0e6686	0.034765743
22	0x3cf1f449	0.02953543
23	0x3d9e77cc	0.07737693
24	0x3df9aa14	0.12190643
25	0xbd1b32b0	-0.037890136
26	0xbc9241d6	-0.017853659
27	0xbe0e0ad4	-0.13871318
28	0xbcb5e8fa	-0.022205818
29	0x3c951697	0.018199248
30	0x3da8d2b7	0.08243316
31	0xbcdbe6f4	-0.026843525
32	0xbd2aa4c4	-0.04166104
33	0x3c886501	0.016649725
34	0x3e104552	0.14088944
35	0x3cfa5f04	0.030562885
36	0x3e2c554c	0.16829413
37	0xbc50e2c4	-0.012749378
38	0x3c98f1dc	0.018670015
39	0x3d159f8c	0.03652911
40	0xbd6058e3	-0.05477227
41	0xbdcc1cc4	-0.09966424
42	0x3b6e8795	0.003639673
43	0x3e143592	0.1447356
44	0x3ce1af62	0.02754945
45	0xbdbeae74	-0.09310618
46	0x3ac222f1	0.0014811439
47	0x3d8865f8	0.06660074
48	0x3cfe11ba	0.031014312
49	0x3e18feb2	0.14940909
50	0x3d219d30	0.039456546
51	0x3d8795cc	0.06620368
52	0x3daec315	0.08533303
53	0xbc75d89d	-0.015005258
54	0x3d4fcb71	0.050731126
55	0xbe11538f	-0.14192031
56	0x3c133777	0.008985392
57	0xbd222b99	-0.03959236
58	0xbcfdc934	-0.03097973
59	0x3dd6dd04	0.10491374
60	0x3d1ce732	0.038306423
61	0xbb588838	-0.0033040177
62	0x3d9e370b	0.07725342
63	0x3d0ce0a3	0.034393918
64	0x3d8b20f0	0.06793392
65	0xbdfea17a	-0.12433143
66	0x3e30310e	0.17206213
67	0xbd27837e	-0.040896885
68	0x3bff1f90	0.007785745
69	0xbcf584c3	-0.029970532
70	0xba160460	-0.0005722698
71	0x3cb7a693	0.022418296
72	0x3d363bc1	0.04449058
73	0xbddf7485	-0.10910896
74	0xbd1abc58	-0.037777275
75	0xbdb9dad3	-0.090749405
76	0xbdd05bbb	-0.10173746
77	0xbb113bee	-0.0022160965
78	0xbe37adda	-0.17937413
79	0x3dd998c4	0.10624841
80	0x3d6381fc	0.055543885
81	0x3e4a4ca7	0.19755803
82	0x3d6b5fd6	0.057464443
83	0x3b283438	0.002566589
84	0xbd0e14a0	-0.03468764
85	0x3ce33e0b	0.027739545
86	0x3df58274	0.119877726
87	0x3d95d883	0.07316687
88	0x3e1e1527	0.15437756
89	0x3de46073	0.11151209
90	0xbae0e2ea	-0.0017157469
91	0xbd580e9b	-0.052748304
92	0xbba23c72	-0.0049510533
93	0x3d69829e	0.057009332
94	0xbd8170d7	-0.063203506
95	0xbc3647ad	-0.011125487
96	0xbcd2a246	-0.025712144
97	0xbe0be6d5	-0.13662274
98	0xbc85b55e	-0.016321834
99	0x3dadc540	0.08484888
100	0x3ddc740d	0.107643224
101	0x3e25dc65	0.16197355
102	0x3dd5dfa7	0.10443049
103	0x3e4e1fcd	0.20129319
104	0xbc0bb992	-0.00852813
105	0x3e18d36d	0.14924403
106	0xbaca1930	-0.0015418883
107	0xbd7134af	-0.058888134
108	0x3d43aff9	0.047775242
109	0x3e0950cd	0.1340973
110	0x3dd3d340	0.10343027
111	0x3e135f30	0.1439178
112	0x3dc664d9	0.09687204
113	0x3e4ad176	0.19806466
114	0xbc21f327	-0.009884632
115	0xbde17e9a	-0.110104755
116	0x3d7a4ba3	0.06110729
117	0xbe3cccbe	-0.18437478
118	0xbe36c05d	-0.17846818
119	0x3cf43764	0.029811569
120	0x3e52475e	0.20535037
121	0xbd06d9bb	-0.032922488
122	0x3d4689a8	0.048471123
123	0x3d90c607	0.07069021
124	0xbdc287b9	-0.09498543
125	0x3d8ed057	0.069733314
126	0xba213c44	-0.0006150643
127	0xbe042769	-0.12905659

fc2.weight f4 [10, 128]
0	0xbc8ba513	-0.017046487
1	0xbd2f849f	-0.042851087
2	0x3dac4248	0.0841108
3	0xbd442fbd	-0.04789709
4	0xbe8fbf7c	-0.28075778
5	0x3de87ad5	0.11351553
6	0x3da1dc03	0.07903292
7	0x3cc4bec4	0.024016745
8	0xbdc209e7	-0.09474545
9	0xbe090574	-0.13380986
10	0x3d20b0f7	0.039231267
11	0xbb8cb0aa	-0.004293521
12	0x3e242b82	0.16032222
13	0xbead321a	-0.33827287
14	0xbec14e53	-0.3775507
15	0xbe237e27	-0.15966092
16	0x3d9afc55	0.0756766
17	0xbe499361	-0.19685127
18	0xbe1f1dea	-0.15538755
19	0xbda937d5	-0.08262602
20	0xbddd7d18	-0.10814875
21	0xbde344e1	-0.11097122
22	0xbdc029d4	-0.09382978
23	0xbb885409	-0.0041604084
24	0xbe642fb3	-0.22283821
25	0x3dbd9b4d	0.09258137
26	0x3df06c53	0.11739411
27	0x3da63bff	0.08116912
28	0x3e0de027	0.13855039
29	0xbd9f7eca	-0.07787855
30	0xbde44618	-0.11146182
31	0x3d3454d5	0.044026215
32	0x3a842a86	0.0010083474
33	0xbdd7ebb3	-0.10543003
34	0xbe4aa110	-0.19788003
35	0x3dcb2b1d	0.099203326
36	0x3e170f83	0.14752011
37	0xbd020020	-0.0317384
38	0xbe0f87f6	-0.14016709
39	0xbf0c4bd4	-0.54803205
40	0x3deb9a37	0.115040235
41	0xbcd1e70a	-0.025622863
42	0xbdbf4e67	-0.09341126
43	0xbe37e421	-0.17958118
44	0xbbaeaaaa	-0.0053304033
45	0x3cb60f33	0.022224044
46	0x3d0ffc23	0.035152566
47	0x3d9ccd01	0.07656289
48	0xbe239e91	-0.15978457
49	0xbe87de03	-0.2653657
50	0xbd9722ba	-0.073796704
51	0x3d372300	0.044711113
52	0xbe1f2e3a	-0.15544978
53	0xbe5716c9	-0.21004786
54	0xbebb2bf7	-0.3655698
55	0x3dc9206f	0.09820639
56	0x3ddbbb39	0.10729069
57	0x3c3e00b2	0.011596845
58	0x3e0bf596	0.13667902
59	0x3e0cf2fa	0.13764563
60	0x3e0939d5	0.13400967
61	0xbdc1dd34	-0.09466019
62	0xbeabddcf	-0.33567664
63	0x3d857fad	0.06518493
64	0x3c84bed0	0.016204268
65	0xbdab49c4	-0.08363679
66	0xbe639f85	-0.2222882
67	0xbd5a8d5f	-0.05335748
68	0x3d806eac	0.06271109
69	0xbe6e0c7c	-0.2324695
70	0x3cac37a6	0.021022629
71	0x3e0cc279	0.1374606
72	0x3e7f6e57	0.24944435
73	0x3cd75c9f	0.026289282
74	0x3d99d587	0.0751143
75	0xbd267221	-0.040636186
76	0xbcf1b4f8	-0.029505238
77	0xbda44bb1	-0.080222495
78	0x3d881a7b	0.06645676
79	0x3e2f02ba	0.17090884
80	0xbeb524d3	-0.35379657
81	0xbdb7e4c1	-0.08979178
82	0xbe3c8260	-0.18409109
83	0xbec06789	-0.3757899
84	0xbbb800e3	-0.00561534
85	0xbea20b42	-0.31649214
86	0x3dfe1914	0.12407127
87	0x3e07d213	0.1326373
88	0xbd90e750	-0.07075369
89	0xbea8cb93	-0.32967815
90	0x3d632430	0.055454433
91	0xbe096359	-0.13416804
92	0xbe29ae41	-0.16570379
93	0xbd4c0103	-0.049805652
94	0xbe01b206	-0.12665567
95	0x3dcefa51	0.10106338
96	0xbe0b0e57	-0.13579689
97	0x3cf7458f	0.030184535
98	0x3dccbe64	0.09997252
99	0x3dd92560	0.10602832
100	0xbae73e29	-0.0017642427
101	0xbea89cd5	-0.32932153
102	0x3daa1643	0.08305027
103	0xbf04c264	-0.51859117
104	0x3d949f67	0.07256966
105	0xbd7545a5	-0.05988087
106	0x3de3d7cb	0.111251436
107	0x3e3b3714	0.1828273
108	0xbe796f20	-0.24358797
109	0x3e18829c	0.14893574
110	0x3e14f816	0.14547762
111	0xbe385992	-0.18002918
112	0xbca6ff1f	-0.020385323
113	0xbe653916	-0.22385058
114	0x3e02d4a5	0.1277643
115	0x3d50ee54	0.051008537
116	0x3e5353c0	0.20637417
117	0x3de139a5	0.10997323
118	0x3e2468eb	0.16055648
119	0x3c3bcc24	0.011462245
120	0xbe123255	-0.14277013
121	0xbd8eb5c7	-0.06968265
122	0xbd8cdb9b	-0.06877824
123	0x3e18dff5	0.14929183
124	0x3e0ecc4f	0.13945125
125	0xbe81532f	-0.25258777
126	0x3cf45965	0.029827783
127	0x3da4dea1	0.080502756
128	0x3d3ebd0c	0.046567008
129	0x3dc18c47	0.09450584
130	0xbe41fd6a	-0.18944326
131	0x3d9bdb80	0.07610226
132	0xbe0b7bfa	-0.13621512
133	0x3db54a09	0.08852012
134	0xbe7ef111	-0.24896647
135	0xbe494cce	-0.19658205
136	0x3e48ae10	0.1959765
137	0x3e25a488	0.16176045
138	0x3e0396f8	0.12850559
139	0xbe80edd4	-0.25181448
140	0x3d499541	0.049214605
141	0x3e40c1c6	0.18823919
142	0xbdae7b07	-0.08519559
143	0x3d5e8f6c	0.054335997
144	0x3e0b1399	0.13581695
145	0xbe72c01f	-0.23706101
146	0x3dcf3e9e	0.10119365
147	0x3df56d15	0.11983696
148	0x3dd7f5ce	0.105449304
149	0xbe944cb2	-0.28964764
150	0x3e178490	0.14796662
151	0xbdeb7027	-0.11496001
152	0x3d81db6f	0.06340682
153	0xbe129ac4	-0.14316851
154	0x3ddd2db2	0.10799731
155	0x3d21fba6	0.03954663
156	0xbe4fd772	-0.2029703
157	0xbe617d8a	-0.22020546
158	0xbe946966	-0.28986663
159	0xbe5924a4	-0.21205384
160	0x3bc08946	0.0058757393
161	0x3cf61b59	0.030042337
162	0x3e458893	0.1929038
163	0x3dd708d4	0.10499731
164	0x3ea5b199	0.3236206
165	0xbe55b699	-0.20870437
166	0x3d70a5c8	0.05875185
167	0x3e001a37	0.1251
168	0xbe7ecfd8	-0.24883974
169	0xbe22bb75	-0.15891822
170	0xbe0c591a	-0.13705865
171	0x3cbb0a80	0.022832155
172	0x3d568987	0.05237725
173	0x3d28e837	0.041237082
174	0xbe5e7b40	-0.21726704
175	0x3e023944	0.12717158
176	0xbe689785	-0.2271405
177	0x3de1e6b2	0.1103033
178	0x3dae021c	0.08496496
179	0x3d5734c4	0.052540556
180	0x3da4ee38	0.08053249
181	0xbd48c788	-0.049018413
182	0x3e2201fb	0.15821068
183	0xbdf690bb	-0.12039324
184	0xbe18334d	-0.1486332
185	0xbdc493c4	-0.095984966
186	0xbd73aa03	-0.059488308
187	0x3e1eb881	0.1550007
188	0xbe5139be	-0.20432183
189	0xbeb12adb	-0.3460301
190	0x3e035d43	0.12828545
191	0xbd80c94b	-0.062883936
192	0xbe620e3c	-0.22075742
193	0xbea0a5b0	-0.3137641
194	0x3d69f6e2	0.05712021
195	0xbe1716c9	-0.14754786
196	0x3c84e6f7	0.016223414
197	0xbda271fb	-0.07931896
198	0xbe1adb14	-0.15122634
199	0xbd9820f7	-0.074281625
200	0x3dfaddd8	0.122493446
201	0xbdd49284	-0.10379508
202	0x3da560df	0.08075117
203	0x3d5d5596	0.0540367
204	0x3d10d7a3	0.035361897
205	0xbdf71147	-0.12063842
206	0xbddea816	-0.108719036
207	0xbcdae8fc	-0.026722424
208	0xbe4c0b29	-0.19926132
209	0xbe1f9e11	-0.15587641
210	0x3d2a2ec1	0.041548494
211	0xbf7eda5a	-0.9955193
212	0xbe4cf1b7	-0.20014082
213	0x3d874756	0.06605403
214	0x3e556ee9	0.2084309
215	0xbdf36677	-0.11884778
216	0xbe278f2b	-0.16363208
217	0x3e31ce9d	0.17363973
218	0x3e060f66	0.13091812
219	0x3dbf98ab	0.09355291
220	0xbe265053	-0.16241579
221	0x3d7bb86e	0.061455183
222	0xbe0159a4	-0.12631851
223	0xbe8e3278	-0.2777288
224	0x3db6c9d8	0.089252174
225	0xbe052807	-0.1300355
226	0xbe2275fe	-0.15865323
227	0x3c7e1b6c	0.015509468
228	0x3ce683c9	0.028139012
229	0x3e2d172e	0.16903374
230	0xbe6b41d1	-0.22974326
231	0x3efec9ac	0.49763238
232	0x3e176a0c	0.14786547
233	0x3d86cee7	0.06582432
234	0xbda8bd4a	-0.08239229
235	0xbe3026ad	-0.17202254
236	0x3e1cf4ed	0.15327807
237	0x3df351fb	0.11880871
238	0xbdaad9c0	-0.08342314
239	0x3e055764	0.13021618
240	0xbdbfb8ce	-0.093614206
241	0x3da94905	0.082658805
242	0xbe158142	-0.14600089
243	0x3deb4a02	0.11488725
244	0xbd2e739e	-0.04259073
245	0xbe60d34c	-0.21955603
246	0xbe313d2d	-0.17308493
247	0x3d7727ca	0.06034068
248	0x3e282486	0.16420183
249	0x3b0ae890	0.0021195747
250	0x3e761eee	0.24035236
251	0xbce89b7d	-0.028394455
252	0xbdd9905c	-0.106232375
253	0x3d0185cf	0.03162175
254	0xbe02028c	-0.12696284
255	0xbe28dc40	-0.16490269

fc2.bias f4 [10]
0	0xbd949a78	-0.07256025
1	0x3df558cd	0.11979828
2	0xbd38bfbd	-0.04510473
3	0xbd604c00	-0.05475998
4	0xbd5b6970	-0.05356735
5	0x3e069ab3	0.1314495
6	0xbc2b362d	-0.010449928
7	0xbb22487b	-0.002476244
8	0x3c3899df	0.0112671545
9	0xbd3c7852	-0.046013184
