netMNIST.pt (torch, 620189 bytes, 12 tensors)

conv1.weight f4 [32, 1, 5, 5]
00000000: 3a80 2ebe 9d20 163e 5ddb 14be 18d3 22be
00000010: 1569 01be 5381 b93d 1058 97bd 1d47 993d
00000020: ddd1 2dbe 9783 f8bd 3365 96bd 2dfd 20bd
00000030: 033c 1cbe e519 063e 6031 41bd 007a 833d
00000040: b0d2 103e 339f 183d c702 603d 5baf 453e
00000050: c3bb b8bd c7bd 813d d73c b6bd 3a5c 123e
00000060: 9a90 233e e7d1 3cbe a0d3 2e3e 0397 c33d
00000070: 7d7d b23d 3d9f a83d 0340 2a3e 6755 d8bc
00000080: f532 2dbe 8d11 6bbd 473c 10be 4d9e 583c
00000090: 67f3 18bd 0ab4 dbbd 33f7 94bc 3f07 423e
000000a0: c03a 81bc cd13 d03b 9a86 ffbc b3c8 003d
000000b0: ba7a 363e ad77 fa3d 6a64 913d 5305 323d
000000c0: 5a29 413d fa3d 9e3d 40b8 d3bc ca57 3ebe
000000d0: 304d fdbd 7ad0 2e3e 9add 433c 2fe7 25be
000000e0: da35 013d 6f38 293e 3389 41be 22e1 09be
000000f0: 2d21 a3bd cd85 033c c00f 3fbd b30b b4bc
00000100: 52a8 47be a0ce bf3d 07c3 333e fd5c fa3d
00000110: 8806 11be 0817 25be 5d16 aa3d 332f 933b
00000120: 60e8 a73d e01e 48be 675f 43bc 156f 103e
00000130: a304 be3d 0052 ef3b 0012 213d b31f 9bbc
00000140: 3a36 e1bd 9dc9 9abd 2770 f9bd d81b 2a3e
00000150: bd65 e13d 133f 8f3d 280d 1dbe 3507 1e3e
00000160: 576d 803d f7ad 0d3e f021 a1bd faaa 2d3d
00000170: 8ff6 473e b7c2 093e ba3f 243e 0005 2cbd
00000180: 4f08 1c3e ed67 20be 1ab4 8d3c 97a0 e6bd
00000190: c70c 3fbd 87cb 51bd cd2a 753c 8865 3a3e
000001a0: 50c9 ca3d 9a19 5eba 5a60 113e dde6 d1bd
000001b0: 9d18 d33d e7ee 97bc ba8c 0ebd 27d0 bf3c
000001c0: 88e5 1cbe 4054 bd3c 1db9 893d 0b17 2f3e
000001d0: 600d 7fbd a077 933d 38b3 4c3e aab4 afbd
000001e0: 6bae 423e f75c cbbd b38c b43d fa75 a03d
000001f0: 5ad3 643d dbf4 213e b78b a5bd 274d 573d
00000200: 671e 933a e209 1abe c7e9 46bd 2ac5 08be
00000210: 5a1b b53d 1a49 933c 5a81 a03c 7385 78bd
00000220: 331b 7c3a 7ace 7ebd c062 6b3d 43e5 463e
00000230: 5a2b f83c 5a6b b5bd f731 fabd b379 7a3c
00000240: 1bee 17be 1ff0 19be b34c 05be 571e 8bbd
00000250: 678a 723c 1507 0d3e 7aa7 9e3d b0e6 1c3e
00000260: e897 00be f342 8a3c f30a 36be 50f8 ea3d
00000270: baba 2a3d e815 463e 00a8 11be 383c 243e
00000280: c8e5 2c3e 9b95 253e 8dca e93c 6d38 3a3e
00000290: cac5 083e 0bcc 183e 1add 54bc c329 1dbe
000002a0: 331b 23bb a0a1 193d e080 0bbe 6df6 eabd
000002b0: ed59 44be 9095 8fbd 1365 323e 7a14 0c3d
000002c0: b325 48bc 0097 033c 8067 ff3d f7d9 34be
000002d0: 8505 1ebe 0d2e 88bd 73bb ebbd fd43 d33d
000002e0: 53b5 103e c7b3 46be 42cf 2dbe 1a70 47be
000002f0: 0086 9a3d 8fd5 243e 27ca 1ebe 80a0 bdbd
00000300: da57 823d 3dbb 05be 32f9 2d3e 7301 3f3d
00000310: 470d 64bd 80d4 543c 9a66 7f3d 07d7 90bd
00000320: c3b0 1ebe 0034 b03a 33bf 6e3b 9a27 843b
00000330: 9a17 efbc 257f 033e f39a 64bd cd95 9ebc
00000340: 276c a83d a5e8 00be 0d59 5b3d 5323 35bd
00000350: 6a79 c43d 8331 debd cd35 f23b 9a48 a03c
00000360: 08c8 24be 32eb 14be 4a16 9d3d fa6e 6ebd
00000370: 9342 f33d 7350 4abe 1d7a cabd 9baf 28be
00000380: 9d9f a33d 67ff bdbb 60cc 18bd 9a4a 08bd
00000390: ea14 20be 2d52 683d 9a5a a33b cb55 0dbe
000003a0: a020 9a3d 9ab8 83bb 6312 46be 0755 dc3d
000003b0: fa16 db3d 7a58 1abd d866 0dbe 4d90 033c
000003c0: b789 1a3e 2b76 3b3e 5095 1abe ed00 b9bd
000003d0: 5876 1f3e 1d34 c83d 378c fd3d 3adf cbbd
000003e0: 3871 303e ef5b 28be 00d7 1dbc 6712 883b
000003f0: 6799 093d ef89 1abe aae5 3b3e 9f45 493e
-0.17041102 0.14660878 -0.14536805 -0.15900838 -0.12637742 0.0905787 -0.073898435 0.07484267
-0.16974588 -0.12134474 -0.07343521 -0.039303947 -0.15257268 0.13095815 -0.04716623 0.06419754
0.14142871 0.0372612 0.05469015 0.19305174 -0.09020188 0.06335025 -0.08898323 0.14292994
0.1597313 -0.18439446 0.17072916 0.095502876 0.08715341 0.08233497 0.16625981 -0.02640791
-0.1691397 -0.057389785 -0.14085494 0.013221336 -0.0373415 -0.10727699 -0.01818428 0.18948077
-0.015775084 0.0063500167 -0.031192113 0.0314414 0.17820254 0.122298576 0.070992306 0.04346211
0.047158577 0.07726665 -0.025844693 -0.18588176 -0.12368238 0.17071715 0.011954689 -0.16201471
0.031545497 0.16525434 -0.18899994 -0.13464788 -0.07965312 0.008027506 -0.04664588 -0.021978235
-0.19497803 0.093655825 0.17554866 0.12224767 -0.14162648 -0.16122067 0.08305047 0.0044917106
0.08198619 -0.19543028 -0.011924601 0.14104874 0.09278228 0.0073034763 0.039323807 -0.018936014
-0.10996671 -0.07557986 -0.121795945 0.16612184 0.11005733 0.06994452 -0.1533705 0.15432437
0.06270855 0.13835894 -0.07867801 0.042399384 0.19527648 0.13453184 0.16039935 -0.041996956
0.15237544 -0.15664645 0.017297793 -0.11261099 -0.046643045 -0.05121949 0.014963818 0.18202794
0.099016786 -0.0008472443 0.14196911 -0.10249112 0.10307429 -0.018546535 -0.034802176 0.023414684
-0.15321934 0.023111463 0.06724761 0.17098634 -0.062268615 0.07200551 0.19990242 -0.08579381
0.19011848 -0.09929841 0.08815899 0.07835002 0.055865623 0.15816061 -0.08083289 0.052563813
0.001122427 -0.15042832 -0.04856279 -0.13356462 0.088431075 0.017979193 0.01959293 -0.060674142
0.000961709 -0.06220863 0.057467222 0.19423394 0.03029411 -0.08858366 -0.12216561 0.015287804
-0.14836924 -0.15033005 -0.1301754 -0.06792896 0.0148035055 0.13772233 0.07746787 0.15322375
-0.12557948 0.016877627 -0.17777614 0.11473143 0.041681983 0.19344294 -0.14224243 0.16038597
0.1688453 0.16170351 0.028538967 0.18185587 0.133567 0.14921586 -0.012992168 -0.15347962
-0.0024888038 0.037507653 -0.1362338 -0.11472783 -0.19174929 -0.07010949 0.17421369 0.034199215
-0.012216019 0.008031607 0.12470913 -0.17661272 -0.15431793 -0.066494085 -0.115103625 0.10315702
0.1413167 -0.19404517 -0.16973594 -0.19476357 0.0754509 0.16097091 -0.15506802 -0.092591286
0.063644126 -0.13059707 0.16989592 0.04663224 -0.055676725 0.012990117 0.062353708 -0.07072263
-0.15497117 0.0013443232 0.0036429882 0.004033041 -0.029186059 0.1284147 -0.055811834 -0.01935854
0.082237534 -0.12588747 0.053551722 -0.04422314 0.095934704 -0.10849287 0.0073916675 0.01956587
-0.16091931 -0.14542845 0.07670267 -0.058211304 0.118779324 -0.19757251 -0.098865725 -0.16473238
0.07989428 -0.0057982686 -0.037304282 -0.03327427 -0.15632978 0.056718994 0.004985166 -0.13802259
0.07525754 -0.004019809 -0.19342951 0.10758405 0.10697742 -0.037682034 -0.13808763 0.008030009
0.15091597 0.18306796 -0.1509602 -0.0903338 0.15572488 0.09775565 0.123802595 -0.099546865
0.1723069 -0.1644132 -0.0096337795 0.0041525844 0.03359356 -0.1509168 0.18349329 0.19655465

conv1.bias f4 [32]
00000000: cd2d 033e 1ba7 083e 1abf 2abc 33aa 8ebd
00000010: 0b7f 1e3e 43e9 80bd eaae 1dbe b867 04be
00000020: 1203 44be 5383 173e fbd7 193e 7390 50bd
00000030: 7db5 b43d ca36 e93d 9dd7 a4bd 4009 0b3d
00000040: 206f 0bbd 3a21 c5bd f80d 01be 578f c9bd
00000050: 9a17 75bc 1acb c4bc eb41 1bbe 7719 3abe
00000060: 5af3 debc b7fb 9e3d 5d16 883d 7569 0fbe
00000070: c3ea dc3d 8b97 0dbe 270f c7bd ca08 273e
0.1281044 0.13344996 -0.010421539 -0.06966057 0.1547815 -0.06294491 -0.15398756 -0.1293019
-0.19141796 0.1479619 0.15023796 -0.050919008 0.08823679 0.11387403 -0.080489375 0.03394437
-0.034041524 -0.09625478 -0.12602985 -0.09841793 -0.01495924 -0.024022628 -0.15161864 -0.18173777
-0.027215648 0.077628545 0.066448905 -0.14005072 0.10786965 -0.1382734 -0.09719687 0.16311947

conv2.weight f4 [64, 32, 5, 5]
00000000: 4f12 113c 759e 533c 3078 0bbd 3ae2 fbbc
00000010: 35da d7bb 2c82 053d 8ed9 0ebd c4f0 9f3c
00000020: d176 88bc cae1 cebc e45b e03c e6ff dbbc
00000030: 0713 523c 4268 13bc 17e2 ce3c 8a5d 09bd
00000040: c6b2 973c f874 b33c 3a8a 073c 1e09 fd3c
00000050: b827 f13c b625 9f3c 8521 c93c 531a f73c
00000060: 1fc4 dc3c 7ebe 8e3c 987a c5bc 1ab8 9c3c
00000070: d4ff 91ba 5b63 6f3c eca1 abb8 95ed a03c
00000080: 97de 01bd 036e bdbc 5bfe 43bc c3a7 f73c
00000090: f8cd babc 440b 10bb 798c 3cbc 012b 09bd
000000a0: 8e5a 01bd f855 edbc 4775 f6bc 9d60 e9bc
000000b0: b9ec b7bb 76ad 053d 0176 9cbc 13ca 4bbc
000000c0: a5f3 74bc 8995 003c ceff ae3c 79a9 84bc
000000d0: 38ae 86bc 15a2 3d3c 254e 07bd 7bb5 ab3c
000000e0: 4aa7 5fbc b164 823c 9f17 e03c 3d35 013c
000000f0: c61a 0dbd d6d9 29bc 9e19 f73c 7c9a 05bd
00000100: 11be f13c 8c49 dcbc 5ece fbbb 3c5f ca3c
00000110: fbb2 08bd a5a0 05bd eb03 e9bb a8a8 d6bc
00000120: e866 3cbb 6d1a bd3c abcd 923c a6ce 03bd
00000130: f2dc 17bc b387 dbbc bd35 b8bc 06f7 873c
00000140: a20b ee3b bfb9 093d 5ba7 563c 1887 cdbc
00000150: 1832 1e3c 152a c0bc 07b9 08bd ddb3 f6bc
00000160: 98c8 083d 22c5 8cbc 87b0 dd3c 622a c0bc
00000170: c2bc 023d cef1 abbc 0e80 253c 1a92 10bd
00000180: 255b 70bc c188 23bc 1679 34bb c6e3 7bbc
00000190: 8923 07bc b8fc 5cbb 17cf c83c bf52 09bd
000001a0: 3e2a d7bc 7e56 513c 44b2 b1bb 5dd2 02bc
000001b0: 798e d7ba bc26 043d 4dde 0abd 0a51 d53c
000001c0: 733d 813c c3eb aabc c8f8 ecbb 1ee2 2cbc
000001d0: 134b 44bc 3e67 b1bc 77d0 eb3c 8562 083d
000001e0: a8de 033c a789 9a3c a275 e93c a437 8e3c
000001f0: 37ef 0f3d e686 793c e6e8 0fbd 3ac6 103d
00000200: b1c0 543b c816 89bc aa18 d63b f67e babc
00000210: f22d 77bc 99c3 bf3b d560 36bc 6da0 d8bc
00000220: 0433 c6ba c5c0 073d 4805 e7b8 6667 8b3b
00000230: 6b94 1eba bba0 b1bc a5b0 973b c1d6 d0bc
00000240: 2a76 7c3c 1d70 0a3d 3ce6 0b3d f5b5 02bc
00000250: c309 01bd b98d c43b 489b d73c ddd1 d33b
00000260: 67be 0abd fd5e 0b3d f747 07bd 8eef f53b
00000270: d86f 093d 5a9a 97bc 5149 05bc 9981 df3b
00000280: 3adf 17bc 2a55 943c 3bd4 0c3c ea25 fdba
00000290: 2047 8cba 6e87 61bc 1f8e a2bb cc9f cdbc
000002a0: 76be 0f3d 2ec3 82bb 0e7a 433c 51d4 5b3c
000002b0: dae2 be3c 4dc9 28bc a934 e4bc cf78 96bb
000002c0: ec01 f3bc b2b5 35bc ec6f 93bc 8abb 0fbd
000002d0: 7a19 773c 6144 0e3d da22 573a 6abd e53c
000002e0: 5197 bf3c 7b5d ee3c f35f 883b 709a bb3c
000002f0: 2165 d6bc 5792 09bd 97b2 3f3c c737 86bc
00000300: 4b60 0e3d 55ed a23b 0ba0 3abc 5a58 fc3c
00000310: 0aba 0a3d f708 d73c 693b b23c 0bd9 25bc
00000320: 211b a03c 4433 2c3c 3ec0 5abc 3121 cdbc
00000330: f0b5 103d 3620 ffbc 5745 033c 75e4 8cbc
00000340: f77c f6bc 2a17 86bc 32d6 60bc 6f88 a63c
00000350: 20cc ecba 309d 073d 0e0a e73b 0e35 c938
00000360: 76a7 b73c 752c 98bb eaad 963c e270 363c
00000370: 43c5 74ba c550 ccbc 10bd d03c 5fc9 d2bc
00000380: 1496 5e3c f785 0ebd e119 6e3b 6da9 b53a
00000390: 78fd 643c a87b b7bc e55c eebc a741 32bc
000003a0: 887b 8bbc 7958 06bd 3f04 d23c c2d0 753b
000003b0: 6099 863c 06d7 8b3c c6dc 69bc 36cd 4ebc
000003c0: bee5 d4bc 6421 ef3c aea6 b23c 6442 edbb
000003d0: 594a 1ebc 5400 ee3c 9887 1bbc ee73 4dbc
000003e0: 8053 243c 22cb 58bc 8519 f638 968d db3c
000003f0: fe9e d8bc e241 ae3c 3275 a2bc 79b1 03bc
0.008854463 0.012916197 -0.034050167 -0.030747522 -0.0065872916 0.032594845 -0.034875445 0.019523986
-0.016658219 -0.025254149 0.027387567 -0.02685542 0.012821919 -0.008997025 0.025254292 -0.03353647
0.018517863 0.021906361 0.008272702 0.030888136 0.029437885 0.019427162 0.024552116 0.03016392
0.026948987 0.017424818 -0.024106309 0.019130755 -0.0011138865 0.0146110905 -8.184076e-05 0.019644538
-0.03170642 -0.023123747 -0.011962499 0.030231362 -0.022803292 -0.002197937 -0.011508101 -0.033488277
-0.0315805 -0.028971657 -0.03008522 -0.028488452 -0.0056129363 0.03263613 -0.019099237 -0.012438315
-0.0149506675 0.007848152 0.021362212 -0.016194092 -0.016440496 0.011574288 -0.03303351 0.02096056
-0.013650725 0.015917154 0.027355013 0.007886228 -0.03444936 -0.010366878 0.030163582 -0.03261803
0.029509576 -0.026890539 -0.007684513 0.024703614 -0.033373814 -0.032623906 -0.0071110628 -0.026203468
-0.002874786 0.02308389 0.017920336 -0.032179497 -0.009268986 -0.026798105 -0.022486562 0.016597282
0.0072645703 0.033624407 0.013101424 -0.025088832 0.009655498 -0.023457566 -0.03337958 -0.030115062
0.033394426 -0.017183844 0.027061714 -0.02345771 0.031918295 -0.020989325 0.010101331 -0.035295583
-0.014670168 -0.009981335 -0.0027537993 -0.01537413 -0.008248218 -0.0033719968 0.02451281 -0.03352618
-0.02626526 0.012776969 -0.0054228622 -0.007984725 -0.0016445658 0.032263502 -0.03390341 0.026039619
0.015776372 -0.020864373 -0.0072318055 -0.010551957 -0.01198079 -0.021655675 0.028785927 0.03329708
0.008048691 0.018864466 0.028498475 0.017360516 0.035140242 0.015229916 -0.03513422 0.035345294
0.0032463486 -0.016734496 0.006533702 -0.022765618 -0.015086638 0.0058521745 -0.011131485 -0.026443684
-0.0015121405 0.033142824 -0.00011015922 0.0042542694 -0.00060493377 -0.021683088 0.004629212 -0.025493028
0.015409032 0.033798326 0.034155115 -0.007977952 -0.03150345 0.00599834 0.026319161 0.0064642266
-0.033872988 0.034026135 -0.033027615 0.007505364 0.033553928 -0.018506218 -0.008135156 0.006820869
-0.00926953 0.018107016 0.008595522 -0.0019313667 -0.0010702349 -0.013765199 -0.00496079 -0.025100611
0.035093747 -0.0039905524 0.011930956 0.013417319 0.02330153 -0.0103019 -0.027857142 -0.004592038
-0.029664002 -0.011090683 -0.017997704 -0.03509096 0.015081758 0.03473318 0.00082067924 0.028044421
0.023387583 0.02909731 0.0041618287 0.02290079 -0.026171269 -0.033586826 0.011700294 -0.016384019
0.0347598 0.00497214 -0.011390696 0.030803848 0.033868827 0.026249392 0.021756845 -0.010122548
0.019544186 0.01051027 -0.013351498 -0.025040241 0.03532976 -0.031143289 0.008012137 -0.01719878
-0.030088885 -0.016368467 -0.013722943 0.020328728 -0.0018066205 0.03310889 0.007050759 9.594309e-05
0.022418719 -0.0046439716 0.018393476 0.011135312 -0.00093372556 -0.024940858 0.025480777 -0.025730787
0.013585586 -0.034795728 0.0036331343 0.0013859697 0.013976447 -0.022397831 -0.02909703 -0.010879911
-0.017026678 -0.032799218 0.02563679 0.0037508463 0.016430557 0.017070305 -0.014273828 -0.012622168
-0.025988456 0.029190727 0.021807995 -0.0072405804 -0.009661281 0.02905289 -0.009492777 -0.012539847
0.010029674 -0.013232024 0.000117349475 0.026800912 -0.026443 0.02127165 -0.019831274 -0.008037918

conv2.bias f4 [64]
00000000: e5e7 d0bc 1ac9 00bc d343 1ebc 7941 953c
00000010: f840 ebbc b0f8 ef3c 329c 693c c268 21bc
00000020: f5b2 263b ebb1 0abc 0981 dbbb 28e2 be3c
00000030: 7336 0bbd e978 a0bc 9328 04bd 9dde 003d
00000040: 1186 ef3c 8824 af3c 0ec1 8f3c b9d5 58bb
00000050: 2169 373c 0744 0dbd 564b 0e3d e9c4 993c
00000060: 64bb 38bc 69a9 a93c 6c50 5b3b 9d51 13bb
00000070: 51b9 0d3d be1a de3c 9880 5dbc a968 a4bb
00000080: 5a98 713c aafc a53c 4eaa 06bd 1c2a f63c
00000090: 6a52 aabc 8706 c83c e327 843c 1a38 f7bc
000000a0: c781 733c c172 dbbc 9ac3 a53a 738e be3c
000000b0: 6642 e23c 598b 933c 4ce1 06bc c711 f5bc
000000c0: d857 aa3b 1f06 143c 2f04 573c fa37 01bc
000000d0: dffa 45ba ab60 983c d673 f63c 64f6 37bc
000000e0: bbca 1fbc 3aef d2bc 1a0f 5d3b 9a26 803c
000000f0: a2e8 29bc f17d 07bc 39f4 50bc 100d da3c
-0.0255012 -0.007860446 -0.009659725 0.018219696 -0.028717503 0.029293388 0.014258431 -0.009851636
0.0025436257 -0.0084652705 -0.006698732 0.0233012 -0.033987474 -0.019588904 -0.032265257 0.0314623
0.029238733 0.021379724 0.01754811 -0.0033086373 0.011194498 -0.034488704 0.034739815 0.018770652
-0.011275146 0.020710664 0.0033464683 -0.0022479065 0.03460056 0.027112361 -0.013519429 -0.0050173593
0.014745796 0.020262081 -0.03287726 0.030049376 -0.020791251 0.024417175 0.0161323 -0.030178118
0.014862484 -0.026788117 0.0012646795 0.023261284 0.027619552 0.018010782 -0.008232426 -0.029915703
0.00519846 0.0090346625 0.013123556 -0.007886881 -0.00075523363 0.018600782 0.030084532 -0.011228178
-0.009752925 -0.025748838 0.0033730925 0.015643407 -0.010370405 -0.008269773 -0.01275354 0.026617557

fc1.weight f4 [128, 784]
00000000: 33fc 3a3c 948b 073d 3548 e5bc b78c 933b
00000010: 11dd bebc cc4e da3c 10f2 07bd 357c 9fbc
00000020: ebb3 02bd d004 87bc 6c45 a6bc 3c3d 07bd
00000030: 00f4 8fbc 6ccf 5cba 14f6 743c 1fbc d43c
00000040: 6c81 043d e5ee febb 6555 37bc a5de c6bc
00000050: 4ab5 223c 7c78 ccbc ea47 ea3c b821 7eba
00000060: 8091 8b3c f3ef 983c b3ec 10bd eb69 0fbd
00000070: 53f2 b2bc b77d 47bc dcc9 f23a 254b a8bb
00000080: 371f 9e3c 9fd4 10bd f43a 323d de3a 5dbd
00000090: 8681 43bd fcea 40bd 34c9 c3bd 7e82 b0bd
000000a0: 4b5f f8bd e3af babc c305 5d3c d18b fa3c
000000b0: b9a1 003e e59c bc3d 1416 0c3d 7713 97bd
000000c0: 517b b8bc dcf1 5abd 71d3 2cbd a87c ea3c
000000d0: edee 043d 2eef e3bb a57e 6a3b d8e0 fbbc
000000e0: 7a70 d1bc 9181 c6bc 72a4 9abc f3d3 c1bc
000000f0: e32d 21bd b389 c0bb 5d37 623b effd b1bb
00000100: 4980 103d 0f27 203e d286 853c 4049 10bc
00000110: 67cd 383d d84e 47bd 3199 bcbd 6371 4a3d
00000120: 69c8 883d 68da 3b3d 2d1b bebb 5b05 ce3c
00000130: bfd1 553d 8ce7 edbb 6c67 b0bc 775f ed3d
00000140: 44b1 d63d cf90 1a3e b3b8 9d3c 0c4b 0ebd
00000150: 1c4e 4dbc ff6b fc3c 7390 483e 6384 db3d
00000160: 07c4 4e3d b2f6 133e ef95 383e e1e0 3f3e
00000170: 924e 313e 8db9 433e 1d94 3a3e 36bc 1d3e
00000180: 0ba8 4c3e 1402 4f3e ea56 ae3d 2aa5 053e
00000190: 7b31 0d3e 6dce 3e3d e87d 3abd b209 a03d
000001a0: e902 0a3e cef3 90bd 72d7 493d 016c d8bc
000001b0: a1e0 983d f71e 8f3d 133a 3a3c 174b 9ebc
000001c0: dc89 bc3c b011 7dbc 58b0 4f3d 59e0 2b3d
000001d0: f6cb 49bb bb11 9b3d b59f 513e d720 4a3e
000001e0: a37c 653e 8981 863e 06a7 8c3e b1ad 8b3e
000001f0: 40b3 1e3e bd66 e33c ee5a 0e3e fa7e cf3d
00000200: 470a a03d 1a68 b23d 29ed aa3d 496e 0e3e
00000210: d5d1 053e 019b ba3d 710c a6bc 225a 38bc
00000220: 5ba7 613e 64f9 453e 1707 633d c844 143d
00000230: c0c1 9dbc 2f36 06bc 5142 373e 132e 2f3d
00000240: 7ffd 953d 421f 9c3c b05f 44bd 4585 b5bd
00000250: d33c 0cbd be76 453d 6e3a 593e 8989 793e
00000260: 259a 403e 3d2a 2b3e 2ff1 fe3d 6980 d73d
00000270: 0fae 2c3e 32d1 333e a55c 5b3e f423 533e
00000280: a001 1e3e 326c f43d 5ccf 51bd 3566 d1bd
00000290: f0ed 883d dc84 e33d 41f2 873d 0675 bcbd
000002a0: 70a6 b2bc 557e edbc ad05 623c baae 1d3d
000002b0: f9af ef3d 47da 71bd a13f e6bd d86e 35be
000002c0: 864f 0bbe 9b9f b13d d4b2 213e ad52 0e3e
000002d0: 51ed 0c3e 8fcf 7b3e ad0e 7a3e 4ac2 8a3e
000002e0: 0e18 543e f08d 1b3e 88c5 f73c 6551 81bd
000002f0: 2c3b b4bd 73ab febd 9065 d4bd 3a21 02bd
00000300: eae6 febd 3a2f 9abc 6eec 773c ae04 823c
00000310: 91a0 f73c 81ce a83d c2a7 803b 8588 60bd
00000320: 2cca 893d 374a c63c 8336 723d 76fe 91bd
00000330: ecc2 433d 8726 543d 8e72 de3d c801 123e
00000340: e331 443e cc90 493e 2dfb 493e b83d 863d
00000350: 258e 843c 2de6 0dbe 7538 0fbe 3ada 80be
00000360: 5723 49be 5f89 a4bd d2c5 debd c567 09bd
00000370: 649d 66be 3a76 d0bd c8f0 c8bd d112 98bd
00000380: ff18 33bd a436 2cbd 31e6 94bd a8eb 2bbd
00000390: 9eca 973d 6e9f 7b3d fc61 c53d 6cb8 4dbd
000003a0: 1d48 b53d 1e79 233d fdf8 703d 0553 bf3d
000003b0: c3f2 fe3c 6123 6fbc 008a 37bc 3b74 33be
000003c0: d5f1 6bbe b23f cfbd 913f 8cbd 9a8b d8bd
000003d0: 2981 5dbe 009d 91bd e459 0a3d 5aeb 253c
000003e0: e845 14be c735 cabc a732 19bd 9d76 f23b
000003f0: 41ae 7cbd 7c31 e5bd 586b 21be a879 c63c
0.011412668 0.033092096 -0.027988533 0.0045028585 -0.023298772 0.026648901 -0.033189833 -0.019468406
-0.031909864 -0.016481787 -0.020296775 -0.033017382 -0.017572403 -0.0008423242 0.014951248 0.02596861
0.03234999 -0.0077799433 -0.011189793 -0.024276087 0.009930918 -0.024959795 0.028598744 -0.00096943555
0.017037153 0.018669104 -0.035381984 -0.03501312 -0.021844065 -0.012175969 0.0018523294 -0.005135911
0.019301994 -0.03535902 0.043513253 -0.05401122 -0.047730945 -0.0470991 -0.09559861 -0.086186394
-0.12127551 -0.022788947 0.013490143 0.030584248 0.12561692 0.09209613 0.034200743 -0.073767595
-0.02251974 -0.05345331 -0.042193834 0.028623894 0.03245442 -0.0069560027 0.0035781052 -0.030746862
-0.025566328 -0.024231704 -0.018877242 -0.023660636 -0.0393504 -0.00587579 0.0034517862 -0.0054318826
0.035278592 0.156399 0.016299639 -0.008806527 0.045117762 -0.048659176 -0.092089064 0.04942454
0.0667885 0.045862585 -0.0058015794 0.025149038 0.052201983 -0.0072602686 -0.02153369 0.11590474
0.104830295 0.15094303 0.01925311 -0.03473954 -0.01253083 0.030813215 0.19586353 0.1071861
0.050479915 0.14449576 0.18025945 0.18738128 0.17315128 0.19113751 0.18220563 0.15403828
0.19985978 0.20215636 0.08512671 0.13051286 0.13788407 0.04658358 -0.04553023 0.07814349
0.13477673 -0.07077752 0.04927773 -0.026418688 0.074647196 0.06988328 0.011366385 -0.019322915
0.023014955 -0.015446112 0.050705284 0.041962 -0.0030791736 0.07571741 0.2047108 0.1973909
0.22410826 0.26270702 0.2747118 0.27280954 0.15498066 0.02775895 0.13901874 0.10131641
0.0781446 0.08711262 0.08346016 0.13909258 0.13068326 0.09111596 -0.020269604 -0.011251958
0.22036497 0.19333416 0.055426683 0.036198407 -0.019257426 -0.008191629 0.17896391 0.04276855
0.07323741 0.019057874 -0.047942817 -0.0886331 -0.034237694 0.048208944 0.21213695 0.24368872
0.18808801 0.16715331 0.12448346 0.10522539 0.16863273 0.1756027 0.2142206 0.20619184
0.15430307 0.11934699 -0.051223144 -0.102245726 0.06686008 0.11109325 0.06638003 -0.09202008
-0.02180788 -0.028990904 0.0137952985 0.03849671 0.11703486 -0.059046056 -0.11242605 -0.17718065
-0.13604555 0.086730205 0.15790874 0.13898726 0.13762404 0.24590896 0.24419661 0.27101356
0.20712301 0.15190864 0.030245557 -0.06314353 -0.08800349 -0.12435045 -0.10370934 -0.03176997
-0.12446387 -0.018821348 0.015132053 0.015871372 0.030227931 0.082425125 0.0039262483 -0.054817695
0.06728014 0.02420531 0.059134018 -0.07128613 0.047793314 0.051794555 0.10861693 0.14258492
0.19159655 0.19684142 0.19724722 0.06554741 0.016181061 -0.13857336 -0.1398638 -0.25166494
-0.19642387 -0.08034014 -0.10877575 -0.033546228 -0.22520977 -0.101788 -0.098115504 -0.07425464
-0.04372501 -0.042044297 -0.07270468 -0.041972786 0.07411693 0.06143134 0.0963783 -0.050224707
0.08851645 0.03991043 0.058831204 0.093420066 0.031121617 -0.014595837 -0.011202335 -0.17524807
-0.2304147 -0.10119571 -0.06848062 -0.10573502 -0.21631302 -0.071100235 0.033777133 0.010126913
-0.14479792 -0.024683846 -0.03740182 0.0073993937 -0.06168962 -0.11191079 -0.15763605 0.024227932

fc1.bias f4 [128]
00000000: 9361 7fbe 238c 70bd 8ca6 c03d a9e5 b83d
00000010: 5afd 3dbe a0ba f73d d01b 53bd efae 933c
00000020: 493b a93d 631c 593e 3d44 843e b02e 4abe
00000030: 9dfd 7cbe 57f0 8fbe ea05 a53e b695 483e
00000040: 68a1 fe3d 3214 44be debb 933e c87c b9bc
00000050: 57fe 973d 5a77 943e 4f5a 32be 5478 61be
00000060: e1f9 eb3d e487 913d 52f6 6cbd 87ae ee3d
00000070: 7b03 1f3d 7c02 54bd 9f73 8b3d 72e5 913d
00000080: 6546 d0bd 516a 623e 9c3a a6bd 27d2 0dbe
00000090: 64ee d43d 18bc f13d 4ffa eb3d 3b2b 84bd
000000a0: eecd 02bc ec97 8dbe dc28 4b3e bbd2 36bd
000000b0: c4d3 85bd a82e 053d 77d9 24be 1c1b 2c3e
000000c0: bce5 2dbd 2c32 923e 3bfd 53bd 2266 a33e
000000d0: b61c 82bd 524f ee3d 5c7e 5d3d 6b20 1bbe
000000e0: 7b0d 1c3e d7be 98bc df93 e6bc c5b6 653d
000000f0: 8b18 3f3e 878d a83e bd7c babd e41a 713e
00000100: a6d8 3ebd 0c99 2dbe f140 31be 923f babd
00000110: 0a73 223e 7e16 e53c ad95 40be be1e eb3d
00000120: d3d4 2b3e b2e5 093e 1187 88be 19bf e0bc
00000130: 080a 9fbe ecde 43bd ec11 7fbe b053 6f3e
00000140: a312 233e 714d 37be 9ee5 953e aa50 d2bd
00000150: 5a3b 9c3e defd fdbb 37af 31be 8388 52bd
00000160: c14e d03d 943e 913c c35d d3bd 8f08 02be
00000170: 2aaa 343e dc9c 8b3d 1fe3 283c 3b22 b7bd
00000180: d8fe ca3d b2fc adbd a83c f53c eea7 ff3c
00000190: e246 fc3d 48e7 243d ab79 4d3d 8650 873e
000001a0: 1653 2cbe 2ca4 e93d 6765 e7bd f6d4 493e
000001b0: 2ff7 e03c 7419 ab3c 4456 323e 6379 043e
000001c0: d9d5 8dbe b1ff ecbd ba31 8c3e d4fb 983d
000001d0: c749 15be f86a c93d e947 fcbc 1c59 ea3d
000001e0: a0f6 5cbd c3a8 a53d 526c 9e3e 64c3 ad3c
000001f0: 82de 61be f20a 893e d8d0 33bc cbb4 33be
-0.24939565 -0.058727395 0.09406766 0.09028179 -0.18553677 0.12096143 -0.051540196 0.01802775
0.08263261 0.21202235 0.25833312 -0.19744372 -0.24706121 -0.28113052 0.32231075 0.1958836
0.124331295 -0.19148329 0.2885427 -0.022642508 0.07421558 0.28997308 -0.17417262 -0.22018558
0.1152227 0.07105997 -0.057852097 0.11654382 0.03882168 -0.05176018 0.06809162 0.07123841
-0.10169677 0.22110869 -0.081166476 -0.13849698 0.10397032 0.11803454 0.11522352 -0.06453558
-0.007983668 -0.2765497 0.19839805 -0.044634562 -0.06534532 0.032515198 -0.16098581 0.16807216
-0.04245542 0.28553903 -0.05175517 0.3191386 -0.063531324 0.11636223 0.054075584 -0.15149085
0.15239517 -0.018645687 -0.028146682 0.056082506 0.18661706 0.32920477 -0.09105823 0.23545414
-0.04659333 -0.16952914 -0.1730993 -0.09094156 0.15864196 0.027964827 -0.18807097 0.11480473
0.16780405 0.13466528 -0.26665547 -0.027434872 -0.3106234 -0.047820017 -0.2490918 0.23371768
0.15925078 -0.17900635 0.29276747 -0.10269292 0.30514032 -0.0077512106 -0.17351995 -0.05139972
0.10171271 0.017730035 -0.10320618 -0.12698577 0.17643037 0.06817028 0.010308056 -0.08942076
0.09911889 -0.084954634 0.02993615 0.031208005 0.12318207 0.04025963 0.05016486 0.26428622
-0.1682857 0.114082664 -0.11298638 0.19710144 0.027461616 0.02088616 0.1741572 0.1293693
-0.27702215 -0.11572207 0.27381688 0.074699074 -0.14578925 0.09834856 -0.030796008 0.114427775
-0.053946137 0.08088829 0.30942017 0.021211334 -0.22057536 0.26766163 -0.010975085 -0.17549436

fc2.weight f4 [10, 128]
00000000: 4c1d a1be bb23 0bbf df0f 71be c7fd f8be
00000010: 52cb 153e 1788 563e e2bd 21bf b234 04be
00000020: 6611 9b3d 2169 91bd 72ec ca3c d8e1 5d3e
00000030: 7f50 66bd 1def ef3d f087 e3be 47bb 3f3e
00000040: 4a3d 803e f86b cd3d fd29 933e 8379 39ba
00000050: 2fd9 a5be 2cbe 28bf 5b3b 263c 7cf5 92be
00000060: 949b 6fbe 75dd 20bf 97a5 d43d eaa4 ae3d
00000070: 15a6 19bf e6f7 0f3e 1052 28bf 8db9 38be
00000080: 0658 713d d2ce bc3d db3f a4bd 12b7 313d
00000090: 9261 4d3e 31f6 d33d 6ae9 a83e b3ca 4f3e
000000a0: dc17 1ebf 9332 bbbe 5205 a73e c773 6b3e
000000b0: 48b1 a13d 5720 28bf 0d74 14bf 08eb 6ebe
000000c0: e05d cc3d b223 25be 6af9 613e 7269 a53e
000000d0: 998a 28be 424e 06bf a52c c03d 8a84 0f3b
000000e0: 4f68 9dbd 48f1 9d3d 43a9 2f3e 181c 223e
000000f0: 27af 583e ba0b 0abf 0f46 b9bc d719 10bf
00000100: 3b81 85be c45b a33d 5ea6 35bf 02ca cf3d
00000110: 6516 cfbe 9c2c 0f3e 071d 973d 874f 40bf
00000120: d9c1 583e b050 e3bd 3b9f 2d3e d4e0 50bf
00000130: f8a0 423d 2db5 043e b3d7 f43d 5eae 173e
00000140: 51d1 983e 63a2 153e 99e5 6abf d507 cebe
00000150: 97e8 88be de4d 77bf 1c82 013e 434b bdbe
00000160: 4a5a c3be d3f0 b7bc d4ae 3dbf 4e0e 96be
00000170: f751 0bbf 1709 29bf 2c90 223e 0fee e63d
00000180: 0993 6d3e 664c 2f3d fd45 ce3d 7c94 e43d
00000190: 8c76 fbbe 0b25 483e 5eb2 98be f8a1 abbe
000001a0: 3f02 54be 21e4 d5bb 73ec c3be 67bb ae3d
000001b0: 176f 513e f8c7 3f3e 5627 3fbe a9f0 103d
000001c0: a848 3e3d 99b7 273e 5522 48be 055a 56bd
000001d0: d18d 133e ba7a 313e b419 f53d ce4c 3e3e
000001e0: 92cb 28be bea6 96be a19b a53d 7651 0cbf
000001f0: 5809 493e ec61 5bbe 4d5f 44bb 42fa e4bd
00000200: 7d02 f2bb eeca b53e 6a1b e33e 730c 893d
00000210: 07fc e33c 5605 cabe 3acf e23d 6eb0 063e
00000220: 4eb0 7b3d 6553 01bf ee85 3bbe eae1 2b3e
00000230: 2f16 4bbd ba3d 19be f2f0 3f3e cec3 afbe
00000240: ceff 533e 36a8 353e 0618 893e cd63 9dbe
00000250: 75e8 df3e 6880 c23d 897b e73d 3d37 a7bc
00000260: 7646 ed3d 1e64 233e dbc9 e2bd e5ca 583e
00000270: 56b6 763e b648 923e a746 ee3d 055f ef3e
00000280: 8ab3 1abe bf26 5cbe f0d6 313e 6625 c83d
00000290: b109 55bf a6ce 873d 11f6 ce3e 6340 503b
000002a0: 0e8d bbbd 1802 3bbe 3200 9cbd 46ed 01bf
000002b0: b326 00bf 6403 723c 44e0 0a3f b347 273e
000002c0: 0cbd fabc 6ce0 71bf 1ee2 9cbe e0b7 cdbe
000002d0: 15e9 a73e 6348 c13e d6a7 28bf cb4c f4be
000002e0: 5cb6 2ebf c3f4 983e e848 08be 253b 38bf
000002f0: f1c7 3dbe 9cf1 13be 7310 0c3e 57b3 03bf
00000300: 6f55 903e c048 62be 1c50 a7be 690e b23d
00000310: 1b54 31bf 81ff 2abf 25ef 003e 4a7e bd3e
00000320: 03d7 79be 3669 16bf f469 eabe d019 343d
00000330: f744 3a3e 5d9b 27bf 07a7 cbbd 3b21 e43d
00000340: a142 cdbe d4ab 64be 378d edbe 6c57 913e
00000350: eb1c 37bd 1859 6b3e bc1e 3c3d 3137 99be
00000360: a2a3 3b3e db1c 89bd 4032 fe3d d107 d9be
00000370: 2bf4 6b3d 4c2a f73d c4c3 3f3e 1b6e 02bf
00000380: 4ee4 fd3d 622c bf3d 5e10 3abe 67f2 b9be
00000390: 4479 cbbe db6f afbc ff3c aa3e ec40 533e
000003a0: 0652 c1bd 50f0 ecbd ed14 d93c 8200 493f
000003b0: a828 373e b6fb 87be e415 033e e7eb 21bf
000003c0: ffad b43d 7bfc 02bf 5e29 3e3e 13d9 14bf
000003d0: f53d 06bf ec7e 5c3d 6ced 4abb 50e0 13be
000003e0: f219 c7be 4120 e73d dcd4 0ebf dcb7 3d3e
000003f0: b642 d0be 1aa1 423e 32c4 b3bc d8aa 983d
-0.31467664 -0.54351395 -0.2354121 -0.48631117 0.14628342 0.20950352 -0.63180363 -0.12910727
0.07571678 -0.0710013 0.024770949 0.21668184 -0.05622911 0.11715529 -0.4443965 0.18723784
0.2504676 0.10030359 0.28742972 -0.00070752966 -0.3239226 -0.6591518 0.010145987 -0.28702915
-0.23399192 -0.62837917 0.10383146 0.085275486 -0.60019046 0.1405941 -0.6575022 -0.18039532
0.058921836 0.09219135 -0.08019992 0.04338748 0.20056751 0.10349692 0.3299058 0.20292167
-0.61755157 -0.36562023 0.32621247 0.22993384 0.07895142 -0.65674347 -0.5798958 -0.23331845
0.09978843 -0.16126898 0.220678 0.3230701 -0.16459121 -0.5246316 0.09383515 0.0021899068
-0.07685911 0.07712036 0.17154412 0.1583103 0.21160565 -0.53924143 -0.022616414 -0.5628943
-0.26075158 0.07976487 -0.7095698 0.10145952 -0.40446773 0.13981861 0.073785834 -0.7512135
0.21167697 -0.11099374 0.16955273 -0.8159306 0.047516793 0.12959738 0.11955204 0.1481261
0.29847196 0.14612727 -0.9175659 -0.4024035 -0.26739952 -0.9660319 0.12647289 -0.36971483
-0.38154823 -0.022453701 -0.7409489 -0.2930779 -0.54421943 -0.66029495 0.1587531 0.11275875
0.2320062 0.04279747 0.10071943 0.11161134 -0.49113882 0.19545381 -0.29823583 -0.3352201
-0.20703982 -0.006527439 -0.38266334 0.08531838 0.20452534 0.18728626 -0.18667349 0.03538576
0.04645601 0.1637863 -0.19544347 -0.052331943 0.14409567 0.17331973 0.11967793 0.18583986
-0.16483906 -0.2942409 0.080863245 -0.548118 0.1963247 -0.21424073 -0.002996403 -0.111805454
-0.0073855505 0.35506386 0.44356853 0.066918276 0.027830137 -0.39457196 0.110746816 0.1315324
0.061447434 -0.50517875 -0.18312809 0.16785398 -0.049581703 -0.14964953 0.18744257 -0.34329075
0.2070305 0.17739949 0.2677614 -0.30740204 0.43732038 0.09497148 0.11302859 -0.020412082
0.11585705 0.1595616 -0.11073657 0.21171148 0.24092993 0.285711 0.116345696 0.46752182
-0.15107551 -0.21499155 0.17367148 0.09772758 -0.8321791 0.06631212 0.4042211 0.0031776659
-0.091577634 -0.18262517 -0.07617225 -0.50752676 -0.5005905 0.014771316 0.5424845 0.16335945
-0.030607723 -0.94483066 -0.30641264 -0.40179348 0.32795015 0.3775054 -0.658811 -0.47714838
-0.6824701 0.29874238 -0.13309062 -0.7196525 -0.18533303 -0.14447635 0.1367815 -0.51445526
0.2819018 -0.22098064 -0.32678306 0.08694155 -0.6926896 -0.6679612 0.12591226 0.37010413
-0.24398427 -0.5875429 -0.4578396 0.04396993 0.1819037 -0.6547144 -0.09943967 0.11139151
-0.40089896 -0.22331172 -0.463968 0.2838701 -0.044705313 0.22983205 0.045927748 -0.2992492
0.1832414 -0.06694957 0.12411928 -0.42388776 0.057605904 0.12068614 0.18727022 -0.5094926
0.12397061 0.09334637 -0.18170306 -0.3631775 -0.39740956 -0.021415642 0.3324966 0.20630234
-0.09439473 -0.115692735 0.026499236 0.785164 0.17886603 -0.26559228 0.1280132 -0.63250583
0.088222496 -0.51166505 0.18570468 -0.5814373 -0.5243829 0.05383198 -0.0030964268 -0.14441037
-0.38886982 0.11285449 -0.5579355 0.18527168 -0.40675896 0.19006768 -0.02194414 0.07454461

fc2.bias f4 [10]
00000000: 4202 06be 4eff b13c 4db6 0cbe 4654 90be
00000010: 1612 773e 817f bc3d 1f4b 863d 3229 7d3d
00000020: 0a93 163d 34b4 fa3c
-0.13086799 0.021728184 -0.13741417 -0.28189296 0.24127993 0.09204007 0.06557297 0.061806865
0.03676132 0.030603506

bn.weight f4 [32]
00000000: 0000 803f 0000 803f 0000 803f 0000 803f
00000010: 0000 803f 0000 803f 0000 803f 0000 803f
00000020: 0000 803f 0000 803f 0000 803f 0000 803f
00000030: 0000 803f 0000 803f 0000 803f 0000 803f
00000040: 0000 803f 0000 803f 0000 803f 0000 803f
00000050: 0000 803f 0000 803f 0000 803f 0000 803f
00000060: 0000 803f 0000 803f 0000 803f 0000 803f
00000070: 0000 803f 0000 803f 0000 803f 0000 803f
1.0 1.0 1.0 1.0 1.0 1.0 1.0 1.0
1.0 1.0 1.0 1.0 1.0 1.0 1.0 1.0
1.0 1.0 1.0 1.0 1.0 1.0 1.0 1.0
1.0 1.0 1.0 1.0 1.0 1.0 1.0 1.0

bn.bias f4 [32]
00000000: 0000 0000 0000 0000 0000 0000 0000 0000
00000010: 0000 0000 0000 0000 0000 0000 0000 0000
00000020: 0000 0000 0000 0000 0000 0000 0000 0000
00000030: 0000 0000 0000 0000 0000 0000 0000 0000
00000040: 0000 0000 0000 0000 0000 0000 0000 0000
00000050: 0000 0000 0000 0000 0000 0000 0000 0000
00000060: 0000 0000 0000 0000 0000 0000 0000 0000
00000070: 0000 0000 0000 0000 0000 0000 0000 0000
0.0 0.0 0.0 0.0 0.0 0.0 0.0 0.0
0.0 0.0 0.0 0.0 0.0 0.0 0.0 0.0
0.0 0.0 0.0 0.0 0.0 0.0 0.0 0.0
0.0 0.0 0.0 0.0 0.0 0.0 0.0 0.0

bn.running_mean f4 [32]
00000000: 0000 0000 0000 0000 0000 0000 0000 0000
00000010: 0000 0000 0000 0000 0000 0000 0000 0000
00000020: 0000 0000 0000 0000 0000 0000 0000 0000
00000030: 0000 0000 0000 0000 0000 0000 0000 0000
00000040: 0000 0000 0000 0000 0000 0000 0000 0000
00000050: 0000 0000 0000 0000 0000 0000 0000 0000
00000060: 0000 0000 0000 0000 0000 0000 0000 0000
00000070: 0000 0000 0000 0000 0000 0000 0000 0000
0.0 0.0 0.0 0.0 0.0 0.0 0.0 0.0
0.0 0.0 0.0 0.0 0.0 0.0 0.0 0.0
0.0 0.0 0.0 0.0 0.0 0.0 0.0 0.0
0.0 0.0 0.0 0.0 0.0 0.0 0.0 0.0

bn.running_var f4 [32]
00000000: 0000 803f 0000 803f 0000 803f 0000 803f
00000010: 0000 803f 0000 803f 0000 803f 0000 803f
00000020: 0000 803f 0000 803f 0000 803f 0000 803f
00000030: 0000 803f 0000 803f 0000 803f 0000 803f
00000040: 0000 803f 0000 803f 0000 803f 0000 803f
00000050: 0000 803f 0000 803f 0000 803f 0000 803f
00000060: 0000 803f 0000 803f 0000 803f 0000 803f
00000070: 0000 803f 0000 803f 0000 803f 0000 803f
1.0 1.0 1.0 1.0 1.0 1.0 1.0 1.0
1.0 1.0 1.0 1.0 1.0 1.0 1.0 1.0
1.0 1.0 1.0 1.0 1.0 1.0 1.0 1.0
1.0 1.0 1.0 1.0 1.0 1.0 1.0 1.0
