netMNISTADF.pt (torch, 408763 bytes, 4 tensors)

fc1.weight f4 [128, 784]
9.4975744e-14 1.6885592e-14 4.7160127e-12 -6.4407217e-12 6.1269787e-12 8.568697e-12 2.0189145e-12 -8.1374513e-16
-1.5528272e-14 1.6385508e-14 5.250154e-12 1.3511342e-12 -1.5092435e-14 3.288822e-16 7.807686e-12 -2.7938866e-12
1.1786078e-16 6.527433e-15 -5.1265324e-12 -2.9445811e-16 1.3312144e-15 7.12359e-11 -1.108187e-15 5.8825803e-15
-6.4895946e-15 -5.505771e-12 -8.569911e-12 -2.4183548e-11 -4.442037e-12 -4.0058624e-14 1.2462597e-14 1.9294282e-14
-7.289131e-12 -1.2564495e-12 -0.03369055 -0.043518048 -0.08581228 -0.05572281 -0.0590285 -0.068238735
-0.05090843 0.04499935 0.07992884 0.018403767 0.040904935 -0.028666861 -0.14574896 -0.13039033
-0.055914715 -0.07113763 -0.00923125 1.8282473e-14 5.6639055e-17 -3.014297e-11 1.6382345e-12 -4.4525906e-12
3.012262e-18 8.413789e-12 -1.599561e-16 -0.055391345 -0.013774831 -0.00024745107 -0.030585496 -0.052087996
-0.082143076 -0.13202395 -0.09849285 -0.022087123 -0.013237225 0.035409287 0.11799176 -0.034986723
0.031236276 0.086924724 0.07632873 0.05226133 0.061609764 0.015218565 -0.00905288 -0.014847987
0.021610163 0.05097926 -0.016218446 -1.7016856e-14 1.4035415e-12 -8.371963e-12 1.2771014e-06 -0.09159685
-0.17829762 0.06053085 0.12319645 -0.0059119626 -0.010148981 0.052217755 0.14979696 0.046816595
0.055138543 -0.027453665 0.020151956 -0.0346805 0.078220315 0.019643988 -0.0148153175 0.038181543
0.032696247 -0.050965063 -0.03872731 -0.1611795 -0.13230608 -0.05041393 -0.111119665 -0.00014101656
2.381829e-16 5.1911104e-07 0.0028238224 0.12699531 0.032972343 0.0715236 -0.024830064 0.017450854
0.28681672 0.18423831 0.2854784 0.2812963 0.3445881 0.26429355 0.27949122 0.23949626
0.1443513 0.12655906 0.1473572 0.055491336 -0.060350817 -0.18262933 -0.14024879 -0.21843134
-0.0621178 0.01706735 -0.02827558 -0.11204859 2.3969211e-15 8.039295e-11 0.031255495 0.18927924
0.14319468 0.20896605 0.053325515 0.1517376 -0.037619274 -0.038212705 0.09260501 0.12658326
0.15266465 0.072122075 0.052709613 0.025359185 0.06413349 0.08887964 0.105702184 0.07079835
0.048401274 0.11058809 0.05920542 -0.026023027 -0.0060481154 0.33475217 -0.010793653 -0.08648628
-6.128059e-17 0.031567395 0.00457668 0.060438737 0.047334634 0.118178256 0.06504885 0.018563582
-0.03761715 0.010941352 -0.017321799 -0.015754614 0.07303752 0.055621207 -0.05606645 -0.14789043
-0.18504123 -0.1256743 -0.09715332 -0.02143141 0.047901247 -0.025823511 0.091606244 0.24282601
-0.038130566 0.15171534 0.011790812 0.027194742 -5.4933733e-09 0.113401495 -0.10462615 0.084554456
0.15196027 0.19104452 0.050983097 0.034449104 0.04675949 0.008934061 -0.039434392 0.04189561
0.022042975 -0.03562678 -0.06207384 -0.19256212 -0.16841966 -0.15295713 -0.025327526 0.008085422
0.040786788 0.05311087 0.08884796 0.10835782 0.07219171 0.24614 -0.016004914 0.04842728
-1.5891649e-07 -0.1803041 0.054535512 0.17807917 0.026846444 -0.006121728 -0.09496479 0.022024995
-0.06836614 0.015888298 0.088602826 0.02118404 -0.017577803 0.026082102 -0.11299174 -0.12843573
-0.101637885 0.02932873 0.15785672 0.13543032 0.12064764 0.14845927 0.17513388 0.069949634
0.07880541 0.16106969 0.14204726 0.11300262 -0.0005042654 -0.071278885 0.050376564 0.06335585
00000000: cadd d529 8617 9828 11ee a52c dd9c e2ac
00000010: eb92 d72c fbbd 162d 8811 0e2c cb8b 6aa6
00000020: c2dd 8ba8 6996 9328 2fb9 b82c bd27 be2b
00000030: c9f0 87a8 7296 bd25 b15a 092d 309a 44ac
00000040: 5de2 0725 f12c eb27 b35f b4ac 59be a9a5
00000050: 25d9 bf26 3fa6 9c2e e2b4 9fa6 3af1 d327
00000060: f2cf e9a7 94b7 c1ac 73c3 16ad 82b8 d4ad
00000070: 504a 9cac 7368 34a9 9681 6028 96c9 ad28
00000080: 543b 00ad 5dd4 b0ab 1aff 09bd fb3f 32bd
00000090: 59be afbd 9a3d 64bd dec7 71bd c0c0 8bbd
000000a0: 5c85 50bd 3d51 383d bbb1 a33d 7fc3 963c
000000b0: ef8b 273d c4d6 eabc 373f 15be 0b85 05be
000000c0: d406 65bd 9bb0 91bd ab3e 17bc 83ac a428
000000d0: cc99 8224 f891 04ae 9e8f e62b 5fa9 9cac
000000e0: 0544 5e22 5604 142d b56a 38a5 09e2 62bd
000000f0: d4af 61bc 52bc 81b9 6f8e fabc 395a 55bd
00000100: a13a a8bd 4931 07be 9fb6 c9bd 0ef0 b4bc
00000110: f2e0 58bc 5409 113d aaa5 f13d 3d4e 0fbd
00000120: 38e3 ff3c 9705 b23d 3d52 9c3d fa0f 563d
00000130: 855a 7c3d 4a57 793c 8852 14bc f944 73bc
00000140: cc07 b13c a1cf 503d 8cdc 84bc 3346 99a8
00000150: e987 c52b f847 13ad df68 ab35 2197 bbbd
00000160: a793 36be 32ef 773d 6c4e fc3d 23b9 c1bb
00000170: e947 26bc 49e2 553d 6064 193e c2c2 3f3d
00000180: f4d8 613d 82e6 e0bc b715 a53c 240d 0ebd
00000190: f931 a03d 6eec a03c f2bb 72bc 4064 1c3d
000001a0: 80ec 053d bec0 50bd 87a0 1ebd 3d0c 25be
000001b0: 3f7b 07be d67e 4ebd b592 e3bd d8dd 13b9
000001c0: 984d 8925 0a59 0b35 e10f 393b 0f0b 023e
000001d0: 020e 073d f77a 923d 6b68 cbbc 18f5 8e3c
000001e0: a4d9 923e f8a8 3c3e 3a2a 923e 1206 903e
000001f0: da6d b03e 7c51 873e 7919 8f3e 823e 753e
00000200: d4d0 133e b398 013e cee4 163e e24a 633d
00000210: 6b32 77bd 2f03 3bbe 619d 0fbe 77ac 5fbe
00000220: 3c6f 7ebd d4d0 8b3c 30a2 e7bc bb79 e5bd
00000230: 64b7 2c27 35c9 b02e c305 003d 6bd2 413e
00000240: a0a1 123e 32fb 553e db6b 5a3d 1a61 1b3e
00000250: ab16 1abd ed84 1cbd b2a7 bd3d 0b9f 013e
00000260: 1f54 1c3e bdb4 933d 09e6 573d 11be cf3c
00000270: 6b58 833d 8706 b63d 637a d83d bafe 903d
00000280: 6a40 463d 027c e23d 6281 723d 3e2e d5bc
00000290: 452f c6bb a364 ab3e ddd7 30bc b81f b1bd
000002a0: ad4d 8da4 d04c 013d f9f7 953b 9c8e 773d
000002b0: f6e1 413d 7107 f23d 5538 853d a712 983c
000002c0: 7114 1abd 5b43 333c 72e6 8dbc d20f 81bc
000002d0: b294 953d 10d3 633d efa5 65bd 9770 17be
000002e0: 737b 3dbe c4b0 00be 52f8 c6bd ed90 afbc
000002f0: 1934 443d d48b d3bc 0e9c bb3d 62a7 783e
00000300: cc2e 1cbd 445b 1b3e 402e 413c 82c7 de3c
00000310: 39c0 bcb1 0b3f e83d 3c46 d6bd e32a ad3d
00000320: 799b 1b3e 2da1 433e a7d3 503d 811a 0d3d
00000330: e186 3f3d 2b60 123c f585 21bd bb9a 2b3d
00000340: 7893 b43c 63ed 11bd 2441 7ebd 012f 45be
00000350: 3476 2cbe cba0 1cbe ac7b cfbc b878 043c
00000360: 0c10 273d c98a 593d ebf5 b53d b4ea dd3d
00000370: 3fd9 933d 200c 7c3e bd1c 83bc af5b 463d
00000380: a2a2 2ab4 a3a1 38be a160 5f3d 635a 363e
00000390: 13ed db3c c798 c8bb e67c c2bd c36d b43c
000003a0: 8c03 8cbd 2d28 823c 6675 b53d 278a ad3c
000003b0: 53ff 8fbc 22aa d53c 3768 e7bd a884 03be
000003c0: 8627 d0bd ce42 f03c 31a5 213e 3fae 0a3e
000003d0: 1c16 f73d b505 183e 4c56 333e c141 8f3d
000003e0: bb64 a13d 74ef 243e d674 113e eb6d e73d
000003f0: ae30 04ba aafa 91bd a857 4e3d b6c0 813d

fc1.bias f4 [128]
0.0010891166 0.20102985 0.027026145 -0.019552996 0.06998844 -0.064732455 -0.06328648 0.23265292
0.1390194 -0.020701133 0.0824695 0.17715538 -0.07864919 0.042413246 0.28840864 -0.14809169
0.1257944 0.16665143 0.029673675 -0.03651516 -0.019820867 0.16692841 -0.007154649 -0.001321748
0.15001561 0.033133373 -0.17417695 -0.14132597 0.068272375 0.06643284 0.16630751 -0.078647256
-0.12700352 -0.028559843 0.13280532 0.020376522 0.26170188 0.044624332 0.046214912 0.006617386
-0.049225688 0.044855595 0.06130891 0.0832396 0.010497548 -0.014417789 0.18815637 -0.086519554
-0.09379165 0.057161696 0.024923049 0.0060948636 0.021340493 0.08935385 -0.10836147 -0.16499977
-0.032259975 0.10103756 0.03156114 0.035357043 0.060181744 0.08834944 0.03645136 0.12159835
0.12767963 -0.04128227 0.18175562 0.08903693 -0.02792625 -0.021963388 -0.076846324 0.015041293
-0.03275065 -0.14965157 -0.06993247 -0.1112117 -0.09111807 0.1331701 -0.049304273 0.11324353
0.11491719 0.3427323 0.13779305 0.09194583 0.08177704 0.011763768 0.063544795 0.19269022
0.28498834 0.009030089 -0.0010435799 -0.053227514 0.036177345 0.06839172 0.029341333 -0.076960646
0.016414935 -0.10735958 -0.046977006 0.065250754 0.22272015 0.17849496 0.23059115 -0.07689024
-0.10331048 0.25492752 0.049518365 -0.11165707 -0.008529406 0.25464088 0.07340606 -0.042813763
0.2690946 0.31905684 0.04447586 -0.11854956 0.12519284 -0.107641615 -0.15394026 -0.039427817
0.24078114 -0.033155415 -0.037839185 0.11373743 -0.18448897 0.2700558 0.08865258 -0.027080216
00000000: b0c0 8e3a c5da 4d3e ef65 dd3c 9b2d a0bc
00000010: 1956 8f3d 7392 84bd 589c 81bd 913c 6e3e
00000020: 1a5b 0e3e 6c95 a9bc c5e5 a83d 3868 353e
00000030: d412 a1bd 83b9 2d3d 4caa 933e 59a5 17be
00000040: 3fd0 003e aca6 2a3e 3516 f33c ec90 15bd
00000050: 5f5f a2bc 48ef 2a3e 8c71 eabb 813e adba
00000060: b19d 193e dcb6 073d 715b 32be c1b7 10be
00000070: 63d2 8b3d f10d 883d 844c 2a3e d011 a1bd
00000080: 360d 02be 55f6 e9bc 1efe 073e aaec a63c
00000090: cafd 853e 01c8 363d d94b 3d3d a8d6 d83b
000000a0: e0a0 49bd 80ba 373d 0d1f 7b3d 8679 aa3d
000000b0: e8fd 2b3c 9738 6cbc 10ac 403e 2a31 b1bd
000000c0: d615 c0bd 6222 6a3d 6c2b cc3c 6cb7 c73b
000000d0: 42d2 ae3c 27ff b63d 9eec ddbd b3f5 28be
000000e0: 0923 04bd c8ec ce3d 4146 013d 8cd2 103d
000000f0: 2281 763d 8df0 b43d 054e 153d 8e08 f93d
00000100: 73be 023e 9917 29bd 251e 3a3e fe58 b63d
00000110: 97c5 e4bc 90ec b3bc 9b61 9dbd c16f 763c
00000120: 8c25 06bd 433e 19be c138 8fbd f6c2 e3bd
00000130: 1c9c babd be5d 083e 47f3 49bd 39ec e73d
00000140: b459 eb3d 9c7a af3e 9f19 0d3e 184e bc3d
00000150: b97a a73d d2bc 403c c623 823d 9650 453e
00000160: fee9 913e f0f2 133c bbc8 88ba 1805 5abd
00000170: b22e 143d f510 8c3d 3c5d f03c 8b9d 9dbd
00000180: 9d78 863c 57df dbbd f66a 40bd 30a2 853d
00000190: c010 643e 62c7 363e 1620 6c3e a178 9dbd
000001a0: 7294 d3bd dc85 823e c5d3 4a3d 76ac e4bd
000001b0: ecbe 0bbc 4a60 823e eb55 963d 7c5d 2fbd
000001c0: c4c6 893e 6b5b a33e 522c 363d 1dca f2bd
000001d0: 8d32 003e 3573 dcbd 84a2 1dbe 107f 21bd
000001e0: 558f 763e f9cd 07bd 43fd 1abd 2bef e83d
000001f0: adea 3cbe c144 8a3e 7c8f b53d 54d7 ddbc

fc2.weight f4 [10, 128]
-0.017898597 -0.089719415 0.1297672 -0.04308568 -0.49948707 0.15192258 0.1040527 0.118462205
0.10903993 -0.2822468 -0.06794698 0.0634043 0.20597611 -0.3969928 -0.6517962 -0.115944944
0.19015804 -0.29877076 -0.27572796 -0.2962204 -0.2774191 -0.20576815 -0.3650684 -0.023276385
-0.35705367 0.10161798 0.22074711 0.12843136 0.16700907 0.020203972 0.08995707 0.081480056
0.07957089 0.0936666 -0.46973768 0.15510747 0.22350721 -0.102378674 -0.21520422 -0.51427454
0.23625118 -0.09799122 -0.10697997 -0.08773461 -0.30236885 0.06892411 0.07678585 0.12276726
-0.14079012 -0.49703693 -0.3565071 0.0995281 -0.2263825 -0.29004717 0.14786541 0.13668282
0.14622758 -0.0010015779 0.18281947 -0.239597 0.17668924 -0.15639223 -0.32279497 0.08553091
0.043589085 -0.37278822 -0.6784382 -0.112129115 0.11430323 -0.32277113 0.07181609 0.15915409
0.038777787 0.12127717 0.1717799 -0.05201351 0.08435705 -0.106385335 0.03613734 0.24875782
-0.45023313 -0.17250516 -0.24313022 -0.1004006 -0.055365667 -0.6750007 0.11038813 0.1661694
-0.096232474 -0.62861705 0.15812017 -0.20187859 -0.17505325 -0.14536032 -0.1744977 0.19256203
-0.050186515 0.0627281 0.15164219 0.22561234 -0.12771355 -0.578002 0.16419902 0.09907506
0.029759767 0.030576533 0.18897226 0.20560206 -0.6956249 0.33331725 0.2708398 -0.38285184
-0.082046255 -0.4096992 0.19888546 0.02506449 0.25579467 0.14037941 0.19846877 0.27357548
-0.15045081 -0.068934985 -0.368331 0.25714317 0.17930436 -0.5657152 0.11134085 0.103984825
0.12214306 0.03594423 -0.49235457 0.08918679 -0.27728054 0.3948225 -0.42476076 -0.4635329
0.21919957 0.16090755 0.17171226 -0.6784492 0.4897183 0.16633211 -0.060025316 0.046429083
0.06033347 -0.31961292 0.07633196 0.29200566 0.20451362 -0.45452178 0.14504983 0.017952505
0.058758397 -0.18932611 0.28949395 0.025933605 -0.63805515 -0.33111373 -0.64594275 -0.21922216
0.02491496 0.021391585 0.48874518 0.22077443 0.23034409 -0.13887511 0.12418334 0.5802242
-0.6989394 -0.24029167 -0.1436062 0.06435892 0.4053927 0.14090261 -0.47737715 0.16241743
0.25372574 0.17426267 0.08659545 0.39359772 0.07273221 -0.0009301479 0.41764104 -0.39002633
0.029135374 -0.24605456 -0.22573757 0.3378125 -0.89058423 -0.5532418 0.21280538 -0.1446084
-0.40245706 -0.0015514204 0.1442103 -0.22454675 0.06648853 -0.10656487 -0.017779918 -0.012607413
0.022873983 -0.30626118 0.104433164 0.05120705 0.07494372 -0.23461753 -0.27686006 -0.043055978
-0.32723707 -0.17308627 0.027253121 -0.014114289 -0.4245041 0.05132338 0.6875479 -0.27512947
-0.4211954 0.14059167 0.1305302 0.119209036 -0.36298066 0.039482098 -0.18306805 -0.24273968
0.026285406 -0.3052402 -0.17216785 0.016663902 -0.021643009 0.12159116 -0.60766613 0.5284647
0.25379643 0.4453989 -0.16935863 -0.30100608 0.19480257 0.076221585 -0.15814878 0.14742066
-0.1465836 0.35013464 -0.22699897 0.108942956 -0.13369122 -0.27140313 -0.44844258 -0.015965676
-0.073596425 0.002054342 0.12798452 -0.23036015 -0.2959803 0.08482787 -0.41268367 -0.27652678
00000000: 14a0 92bc d0be b7bd b1e1 043e 9c7a 30bd
00000010: c5bc ffbe 9891 1b3e 9519 d53d 509c f23d
00000020: 5450 df3d a782 90be c927 8bbd 1dda 813d
00000030: 67eb 523e a442 cbbe 1edc 26bf 8b74 edbd
00000040: cab8 423e 7bf8 98be 372c 8dbe 33aa 97be
00000050: e009 8ebe e3b4 52be 3fea babe 1eae bebc
00000060: bdcf b6be 161d d03d 880b 623e 8383 033e
00000070: 6d04 2b3e cd82 a53c 6a3b b83d 04df a63d
00000080: 10f6 a23d 46d4 bf3d 7581 f0be 7ed4 1e3e
00000090: 13df 643e e9ab d1bd 7f5e 5cbe 7fa7 03bf
000000a0: d4eb 713e 9faf c8bd 5118 dbbd 34ae b3bd
000000b0: 17d0 9abe 1528 8d3d e641 9d3d 676d fb3d
000000c0: 492b 10be a07b febe 1988 b6be 63d5 cb3d
000000d0: d0d0 67be 1081 94be 086a 173e 95f6 0b3e
000000e0: afbc 153e 6147 83ba 0735 3b3e ea58 75be
000000f0: 06ee 343e 4925 20be 6245 a5be d42a af3d
00000100: 788a 323d 19de bebe 20ae 2dbf f3a3 e5bd
00000110: d017 ea3d 4242 a5be 5014 933d 4af9 223e
00000120: 75d5 1e3d 2a60 f83d 12e7 2f3e 1e0c 55bd
00000130: 64c3 ac3d 8ee0 d9bd bf04 143d 5fba 7e3e
00000140: f584 e6be 31a5 30be 21f7 78be d49e cdbd
00000150: 1cc7 62bd d9cc 2cbf 2c13 e23d 5028 2a3e
00000160: 8815 c5bd 0ced 20bf 41ea 213e 43b9 4ebe
00000170: 2941 33be 56d9 14be 86af 32be fb2e 453e
00000180: 6090 4dbd 9777 803d 1748 1b3e ec06 673e
00000190: 57c7 02be f0f7 13bf ca23 283e dde7 ca3d
000001a0: c1ca f33c a37b fa3c f281 413e 5989 523e
000001b0: 7914 32bf 8fa8 aa3e 84ab 8a3e 2805 c4be
000001c0: de07 a8bd 18c4 d1be a1a8 4b3e 0c54 cd3c
000001d0: 85f7 823e 9fbf 0f3e 663b 4b3e 1612 8c3e
000001e0: c70f 1abe c92d 8dbd e195 bcbe 45a8 833e
000001f0: 909b 373e b6d2 10bf ac06 e43d fff5 d43d
00000200: 2426 fa3d 423a 133d e615 fcbe 90a7 b63d
00000210: b7f7 8dbe 2d26 ca3e 3e7a d9be 2f54 edbe
00000220: da75 603e f3c4 243e 57d5 2f3e d9ae 2dbf
00000230: 5bbc fa3e f752 2a3e 1bdd 75bd 6c2c 3e3d
00000240: 3b20 773d 4ea4 a3be ee53 9c3d c481 953e
00000250: 056c 513e 14b7 e8be f187 143e 2211 933c
00000260: a5ac 703d b4de 41be 8d38 943e b672 d43c
00000270: 9557 23bf bd87 a9be 815c 25bf c67b 60be
00000280: 751a cc3c 683d af3c cf3c fa3e b112 623e
00000290: 52df 6b3e 4735 0ebe d653 fe3d 9389 143f
000002a0: b1ed 32bf 050f 76be 810d 13be 9cce 833d
000002b0: a28f cf3e c648 103e c76a f4be c150 263e
000002c0: 57e8 813e ea71 323e f558 b13d a485 c93e
000002d0: a0f4 943d 2bd5 73ba 0cd5 d53e 88b1 c7be
000002e0: 4fad ee3c baf5 7bbe c027 67be c3f5 ac3e
000002f0: 54fd 63bf 41a1 0dbf a7e9 593e 3914 14be
00000300: da0e cebe 0859 cbba ddab 133e 95ef 65be
00000310: 232b 883d af3e dabd 31a7 91bc 538f 4ebc
00000320: 3862 bb3c 44ce 9cbe 0ee1 d53d 7cbe 513d
00000330: 187c 993d 943f 70be 9ac0 8dbe 775b 30bd
00000340: 9e8b a7be 873d 31be f041 df3c 9e3f 67bc
00000350: 9a58 d9be 7738 523d 2403 303f c5dd 8cbe
00000360: eca6 d7be 43f7 0f3e b5a9 053e de23 f43d
00000370: 9ad8 b9be fbb7 213d 3176 3bbe c090 78be
00000380: 7e54 d73c 7248 9cbe c54c 30be bc82 883c
00000390: ae4c b1bc c904 f93d 0290 1bbf 7649 073f
000003a0: 9bf1 813e 530b e43e 596c 2dbe 781d 9abe
000003b0: 537a 473e 101a 9c3d c1f1 21be 71f5 163e
000003c0: 031a 16be d944 b33e 6b72 68be 7c1d df3d
000003d0: 5ae6 08be 5af5 8abe 449a e5be 73ca 82bc
000003e0: b9b9 96bd 24a2 063b 600e 033e 88e3 6bbe
000003f0: bb8a 97be 3cba ad3d 464b d3be eb94 8dbe

fc2.bias f4 [10]
-0.16454181 0.004878569 -0.03790744 -0.10845808 0.015609138 0.1733905 -0.037091825 -0.028829796
0.07809766 -0.005895805
00000000: a67d 28be 67dc 9f3b d544 1bbd 451f debd
00000010: 78bd 7f3c 478d 313e 99ed 17bd 772c ecbc
00000020: aaf1 9f3d 9931 c1bb
