MNIST_classification/netMNIST05.pt (torch, 620189 bytes, 12 tensors)

conv1.weight f4 [32, 1, 5, 5]
000000 68 c2 01 be 6a cc 15 be 9a a5 45 bc 00 4e b1 3b
       -0.12671816 -0.14628759 -0.012063408 0.0054109097
000010 f3 e3 e4 3d 8a 8c 32 be c7 50 da bd 3b fb 3c be
       0.1117629 -0.17436424 -0.10659938 -0.18455212
000020 da 9a 9e bc 53 de bb bd 4f 94 48 3e 9a f9 1a bc
       -0.019360948 -0.09173264 0.19587825 -0.009458924
000030 1b e9 1f 3e 9a 4f 4a 3b 87 14 a8 bd 4d f5 51 3c
       0.15616266 0.00308702 -0.0820704 0.012814832
000040 48 83 3f 3e f3 1d 06 3e b3 a5 db bd cd 89 68 bc
       0.18702424 0.13097362 -0.10724964 -0.0141930105
000050 4a 7e d8 3d 65 94 26 be 0a 8b df 3d e7 61 3f 3e
       0.10570963 -0.16267546 0.109151915 0.1868969
000060 6d b8 0a 3d 00 3e 25 be a7 1d f4 3c ad d5 a2 3d
       0.03386729 -0.16136932 0.029799296 0.07950912
000070 9b e0 3c be d2 77 32 3e c3 6f 9c 3d cd 92 b4 3c
       -0.18445055 0.1742852 0.07638504 0.022042656
000080 27 0f 22 bd 33 3b f0 bc cd 6a 78 bc 47 9d 1a 3e
       -0.03956523 -0.029325103 -0.015162182 0.15099059
000090 fa 68 44 be 9f 77 0a 3e 82 a6 12 3e 33 b3 7e 38
       -0.1918067 0.13522194 0.1432133 6.072521e-05
0000a0 e0 5e cf 3d 8d b4 6b 3d 22 cb 36 be ad 99 23 bd
       0.10125518 0.057545234 -0.17850927 -0.03994148
0000b0 1a db 00 bc c7 5e 21 be 45 19 10 be 4d 7f fa 3c
       -0.007864738 -0.15758811 -0.1407214 0.03057828
0000c0 c3 86 9f 3d e7 2a 6b bd 9d a9 01 be 4d 1b d1 3d
       0.07789376 -0.05741396 -0.12662359 0.10210285
0000d0 b3 59 b1 bc 33 9d fd 3c 2d b4 08 bd 2d f3 2c be
       -0.021649217 0.030958747 -0.033374954 -0.16889639
0000e0 ba 1f 3d be f3 9b 84 3c 33 20 d8 3d 5a e1 24 be
       -0.18469134 0.016187644 0.105530165 -0.1610159
0000f0 53 e7 5c 3d 6d c0 87 3d 90 32 e9 bd e7 54 6b 3d
       0.053931545 0.06628499 -0.11386597 0.057454016
000100 9a 6e 19 bc ed 67 4b 3d 9a 37 34 3c 20 f6 8e bd
       -0.009364748 0.04965966 0.010999585 -0.06980538
000110 5d a6 eb 3d 9a 55 14 3d c7 c7 b1 bd 28 b2 3e be
       0.11506341 0.03621445 -0.08680683 -0.18622649
000120 00 4f 15 3d 95 48 40 3e ea 9f ff 3d 00 9b 42 3d
       0.036452293 0.18777688 0.12481673 0.0475111
000130 00 ae d4 bb 7a d9 0a 3e ea e4 bf 3d c8 92 42 3e
       -0.006490469 0.13559523 0.09369834 0.19001305
000140 03 5e b0 3d 67 60 4f bd e7 3b a8 bc 05 6d 2d be
       0.08611681 -0.050629046 -0.020536376 -0.16936119
000150 67 fb 12 bd b3 2d 59 bc 00 30 90 39 92 5b 2c be
       -0.035884287 -0.013255524 0.00027501583 -0.16831806
000160 a0 59 82 bd 1a b9 47 bc 3b c3 3b 3e 90 e0 45 be
       -0.06364751 -0.012190128 0.18336193 -0.19323945
000170 a7 43 0c be 70 48 c7 3d 5d 14 b3 3d 48 01 48 3e
       -0.13697682 0.09730613 0.08744118 0.19531739
000180 70 c5 1b 3e 9b a7 25 3e db 2a 17 be ba 7e 9d bd
       0.15212035 0.16177218 -0.14762442 -0.07690187
000190 ed 7f 80 3d 6a 1d 45 be 50 9a 27 3e 87 89 39 3e
       0.062744 -0.19249502 0.1636746 0.18118869
0001a0 67 42 12 3c 4d be af bc 0d d8 c2 bd ad e3 15 be
       0.008926964 -0.021453047 -0.09513865 -0.14637633
0001b0 cd b6 cb 3b 35 e5 0e be 40 3a 47 bd c3 ce c8 bd
       0.00621686 -0.13954623 -0.048639536 -0.09805062
0001c0 83 f8 24 3e 97 89 40 be 80 a8 11 be af 37 08 be
       0.16110425 -0.18802486 -0.14224434 -0.13302492
0001d0 6a 89 3e 3e 13 32 ea bd 13 2a 3d be 3a c0 3b 3e
       0.18607107 -0.11435332 -0.18473081 0.18335047
0001e0 a2 67 2b be ad 2e 06 bd 8d f3 d4 bc b0 e7 03 3e
       -0.16738752 -0.032759357 -0.02599504 0.1288135
0001f0 50 64 2d 3e 38 e1 02 3e c7 68 65 bd 8a 94 b8 3d
       0.16932797 0.12781227 -0.056008127 0.090127066
000200 f7 c9 cc bd 7a f1 04 3d 5a 9d 43 3e 93 ce 38 3e
       -0.09999459 0.032456852 0.19102994 0.18047552
000210 f3 02 28 3d cd d1 ae 3b 4d 14 83 3c 93 3c 2c be
       0.041018438 0.005335069 0.016000891 -0.16819982
000220 a0 f5 3d be bd a8 f0 3d 75 6d 44 3e d3 2c ba 3d
       -0.1855073 0.11750934 0.1918238 0.09090581
000230 55 d8 40 be fa 6c 2d 3e 9a fd 0e 3c 07 d6 3c be
       -0.18832524 0.16936103 0.0087274555 -0.1844102
000240 27 5b 81 3d 4b db 1a be a0 a3 bd 3d 1a 02 f8 3c
       0.06316214 -0.15122716 0.092597246 0.03027444
000250 40 69 ab bc f7 0e a8 bd 53 6e 7b bd f5 e9 43 3e
       -0.02092421 -0.08205979 -0.06138451 0.19132216
000260 6d 96 01 bd c3 c3 2d be cd ff c0 bb 27 0c e7 3d
       -0.031637598 -0.16969208 -0.005889869 0.11281615
000270 52 7e 30 3e 92 bc 42 3e 8a 1d c6 3d f3 e0 96 bd
       0.17235687 0.19017246 0.09673603 -0.073671244
000280 fa 95 da bd 5a e4 18 bd cf dc 31 3e cd 60 82 ba
       -0.10673137 -0.037327148 0.17369388 -0.0009947062
000290 dd 20 b4 bd 00 96 dc 3d 9a fc de 3b b3 c2 09 bc
       -0.08795331 0.10770798 0.006805015 -0.008408236
0002a0 1a d2 46 3d 20 c3 38 bd 1a 5b 3a be 93 a2 d4 3d
       0.048540212 -0.04510796 -0.18198815 0.10382571
0002b0 4d f6 cb bd b3 bc e4 bc 23 68 30 3e 40 1d 18 3d
       -0.099590875 -0.02792201 0.17227225 0.03713727
0002c0 ba fb 31 3e 6d f5 38 bd 67 d9 10 bd c5 5a 1f be
       0.17381182 -0.04515593 -0.03536358 -0.1556197
0002d0 70 f0 ef 3d fb ec 26 be 10 56 a8 3d 80 7e 74 3c
       0.11715782 -0.16301338 0.0821954 0.014922738
0002e0 7a b2 d3 3d 87 c0 82 bd 53 25 54 3d b2 df 40 3e
       0.10336776 -0.06384378 0.051793408 0.18835333
0002f0 e8 80 38 be c2 22 1f 3e 73 a0 d4 3d a5 2f 44 be
       -0.18017924 0.15540603 0.10382166 -0.191588
000300 6a d2 f5 bd 0f c2 35 be c3 50 3c 3e 40 36 fe 3c
       -0.12003024 -0.17749809 0.18390183 0.031031728
000310 07 e2 d1 3d 4f 04 06 3e e3 9f b1 3d 0d 61 d4 bd
       0.102481894 0.13087581 0.08673074 -0.103700735
000320 23 aa ac 3d 07 06 05 be ea dd ae bd d3 62 37 bd
       0.084308885 -0.1299058 -0.085384205 -0.04477198
000330 ed 3f 70 3d df bb 3c 3e 2f a7 0b 3e 9a c6 10 3c
       0.058654714 0.18431042 0.13637994 0.008836413
000340 fa 71 41 be 53 f1 4a bd 00 db ba 3d 97 5d 48 be
       -0.18891135 -0.04954655 0.09123802 -0.19566952
000350 00 70 4b 3e fd b6 ba bd 08 b8 29 be dd 88 95 3d
       0.19866943 -0.091169335 -0.16574109 0.07301495
000360 d2 79 0e 3e 0a 98 ff 3d c0 a7 57 bd 8d 84 fc bc
       0.13913658 0.12480171 -0.052650213 -0.030824924
000370 f5 e3 3e 3e 87 a8 fb bd 60 b5 10 3e ff 7d 04 be
       0.18641646 -0.122880034 0.14131689 -0.12938689
000380 27 43 a7 3d 60 9a 0f bd 0a 8b 11 be 0a 78 b3 bd
       0.08167105 -0.035059333 -0.14213195 -0.0876313
000390 00 24 55 3b 93 30 13 bd 32 eb 37 3e d8 f7 2d 3e
       0.0032522678 -0.035934996 0.17960814 0.16989076
0003a0 0d dc d0 bd 8d 10 15 be 1d 34 ed 3d 10 25 b9 3d
       -0.10198221 -0.14557095 0.115822054 0.09040272
0003b0 22 ca 27 3e cd ba 63 3d 8a e8 92 3d c2 35 4b be
       0.16385701 0.05559807 0.071732596 -0.19844726
0003c0 37 2c 90 3d 23 20 21 3e 3d 90 fe 3d d3 9c 2b be
       0.07039683 0.15734915 0.12429855 -0.16759042
0003d0 5a da 30 bd c0 d9 88 bc 22 82 38 be c7 bf 18 3d
       -0.043176986 -0.016705394 -0.18018392 0.037292268
0003e0 7d f2 ed 3d 38 2b 2a be 4d 6c c1 3c fb 85 34 3e
       0.116185166 -0.16618049 0.023611212 0.17629234
0003f0 a8 30 21 be 17 bc e2 bd 6d b2 e7 3d 13 50 a2 bd
       -0.15741217 -0.110710315 0.11313329 -0.07925429

conv1.bias f4 [32]
000000 67 af ab bd a7 84 86 3c ed 43 47 bd d0 84 de bd
       -0.08383065 0.016420675 -0.048648763 -0.10865176
000010 da 1d 6b 3d b3 70 56 3d c0 a4 d5 bc c3 70 fe bd
       0.057401516 0.052353572 -0.026079535 -0.12423851
000020 9a 2b 74 3c 07 d4 2b 3d c3 c8 85 bd 93 94 98 bd
       0.014902974 0.041950252 -0.06532433 -0.07450213
000030 d0 7b d0 3d 33 8f a3 bb c0 42 dd bd 2b 37 14 be
       0.10179865 -0.004991436 -0.10803747 -0.1447417
000040 20 71 7f 3d cd 6f dc bd 8a 62 34 3e 7a ee 39 bd
       0.062363744 -0.10763512 0.17615715 -0.045393445
000050 50 c3 0d be 27 57 a2 bd 97 2f ab 3d 07 aa 07 3d
       -0.13844037 -0.07926779 0.083586864 0.033121135
000060 1a a8 86 3c e7 fc 5d 3c bb d4 1c be df b8 06 3e
       0.016437579 0.013549066 -0.15315525 0.1315646
000070 27 e9 28 3e 9a cf e2 bc 47 27 2e 3e 53 97 0b 3e
       0.1649519 -0.027686883 0.1700717 0.13631944

conv2.weight f4 [64, 32, 5, 5]
000000 42 13 8e bc c8 6f 06 bd b4 02 46 bc e0 3a 24 3c
       -0.017343167 -0.032821447 -0.012085605 0.0100238025
000010 2e ef 07 bd 2b 7d 62 3c d9 06 db bb 4e 47 ed 38
       -0.033187084 0.013823788 -0.006684166 0.00011314322
000020 39 74 22 bc bf ef 80 3b e4 a5 95 3c 84 ac ac bc
       -0.009915405 0.00393483 0.01826758 -0.021078356
000030 f0 66 8b bb 75 0d 93 3c 5f b6 6d bc 63 f0 92 3a
       -0.0042542145 0.017950753 -0.014508813 0.0011210557
000040 82 86 dc bc 9d 2f db 3c db e4 8d 3c ff da a9 3c
       -0.026919607 0.026756102 0.01732104 0.020734308
000050 d7 cd 89 3c 36 9c 9f 3c 75 49 85 bc 21 50 a9 bb
       0.016821785 0.019483667 -0.016270379 -0.005167023
000060 3e 02 11 bc c7 be fb bc f2 9f 91 3b f2 9f 9b bc
       -0.008850632 -0.030730618 0.004444116 -0.018997166
000070 14 27 e2 bb 04 88 12 3a fa 55 8c 3b 60 65 1e bc
       -0.006901631 0.0005589726 0.00428271 -0.009667724
000080 4b 6f ff bc 8a 33 08 bd c3 c1 bb 3b de db 95 bc
       -0.031180998 -0.033252276 0.0057298853 -0.018293317
000090 a8 92 75 3c 80 01 9c 3b c3 b1 a6 bc 4f b6 44 bb
       0.014988579 0.004760921 -0.020348435 -0.003001589
0000a0 43 2d 7c bc ad 73 62 bc ad 87 83 3c ed 1a 5f 3c
       -0.015391651 -0.013821525 0.016055906 0.013617259
0000b0 c2 b3 3f 3c 8a 49 70 3c 91 07 b6 3c 09 c3 86 bb
       0.011700572 0.014665971 0.022220405 -0.0041126055
0000c0 66 6e 4d 3c 18 16 69 3c 07 27 f6 bc 1b fe dd bc
       0.012538528 0.014226459 -0.030047907 -0.027098706
0000d0 52 ca c5 bc 31 25 27 bc 8e a9 24 bc 31 0c 29 bc
       -0.024144325 -0.010201738 -0.010050191 -0.010317848
0000e0 bd 3c a7 bb 15 98 f8 bc b3 e3 e3 3c 3b dd eb bb
       -0.005103676 -0.030345956 0.027818536 -0.0071980036
0000f0 66 00 c3 bb a2 13 13 3c 68 e4 ca bc f5 0a 0f bd
       -0.005950975 0.008976849 -0.024767116 -0.03492256
000100 4b b6 f9 3c 3b 24 6d bc 2d 6f aa ba 5b 15 ae 3c
       0.030482432 -0.01447397 -0.0013003104 0.021250417
000110 aa 49 c2 3c 04 23 08 3c 89 db a5 3c e4 cf e0 3c
       0.023716766 0.00830913 0.020246284 0.02744288
000120 e7 b5 21 bc 00 f4 29 b8 9f 25 35 3b 78 2f 86 bc
       -0.009870029 -4.0519983e-05 0.0027640832 -0.016380057
000130 ef b9 21 bc 24 12 0e 3d c3 fe 00 bd 79 2f 5b bc
       -0.00987099 0.03468527 -0.03149296 -0.013378018
000140 d8 03 99 3c 5d 9a 6e bb 1e 59 9f bc 51 98 85 3b
       0.01867859 -0.0036407926 -0.019451674 0.0040769954
000150 ed 19 a9 3c 4a f3 b6 bb 1e 4d fc 3c 95 e0 ea 3c
       0.020642245 -0.0055832015 0.030798491 0.028671542
000160 ee 43 cc bb 87 d8 f6 bc 45 ca ed bc c6 9e a9 3c
       -0.006233684 -0.030132545 -0.029027114 0.020705592
000170 96 f9 0c bd de e6 53 3c d0 cc 8e bc a5 0b 9d 3c
       -0.03441771 0.012933461 -0.017431647 0.019170592
000180 39 0a 07 3d 05 29 d8 3c f7 54 01 bd d8 f5 21 bb
       0.032968733 0.026386747 -0.03157517 -0.0024713185
000190 26 1c 1d 3c cb 04 e9 3c de 07 ce bc bd ed 81 ba
       0.009589231 0.028444668 -0.025150236 -0.000991277
0001a0 86 1b 81 3c 20 44 a9 3c c3 49 ad ba 59 01 c7 bc
       0.015760195 0.020662367 -0.0013220835 -0.024292635
0001b0 8c f2 22 bc 50 0a 66 bc 64 47 97 bc 9b ef 97 3c
       -0.009945523 -0.014040545 -0.018466659 0.01854687
0001c0 aa 58 8c bb bf 1c eb bc 90 59 00 bd 4e 0b ab bb
       -0.0042830305 -0.02870023 -0.031335413 -0.0052198535
0001d0 a3 55 7e bc f9 49 6f bc 1a af 0b bd 56 7c 83 bb
       -0.015523347 -0.014605039 -0.034102537 -0.0040126247
0001e0 de ce 3e 3c cb 3d 15 3c 0a 6a 57 3c 67 1e 08 3c
       0.011646001 0.009108971 0.01314784 0.00830803
0001f0 72 41 8b bc 63 3f 7f bb 63 d8 e1 3c 29 5b 86 3c
       -0.01699898 -0.0038947694 0.027569002 0.01640089
000200 93 12 3d 3c f2 1b 5e bc 7f 23 a2 bc 67 27 b0 bc
       0.011540073 -0.013556467 -0.019792316 -0.021503164
000210 bc 39 81 3c db de 97 bb 03 7f 06 bd c2 8d b5 3c
       0.0157746 -0.0046347207 -0.03283597 0.022162322
000220 c4 31 e1 bc a4 74 fe 3c 58 91 ef 3c 35 78 18 bc
       -0.02748955 0.031061478 0.02924411 -0.009306003
000230 f4 cd 24 3a 7d d9 2c 3c 4a 4e 04 3d 8f 97 e4 bc
       0.0006286793 0.0105499 0.032301225 -0.0279043
000240 59 db a8 3c 25 29 82 3c 9b 93 10 3d 71 b3 74 3a
       0.020612406 0.01588876 0.035297018 0.00093346
000250 b4 31 f5 bc af 87 82 3c 46 15 8e bc fb 0c 85 bc
       -0.029930927 0.01593384 -0.017344128 -0.016241541
000260 20 c5 d8 bc 3f eb ed bc aa 61 91 3c 04 f2 d7 bc
       -0.026461184 -0.029042838 0.017746765 -0.02636052
000270 c1 2c 48 3c 60 ef b7 ba 08 17 9d bc 04 06 05 bc
       0.012217701 -0.0014033131 -0.019176021 -0.00811911
000280 09 b2 09 3d 06 d7 02 3d 66 3f 12 3c 1b 9d b4 3c
       0.033617053 0.031943344 0.008926248 0.02204757
000290 34 9c df bc a0 3a dd bb af d4 07 bd ab 9d c0 b8
       -0.027296163 -0.0067513734 -0.033161815 -9.1846414e-05
0002a0 2f c4 db bc 98 5f 8c 3a 7a 71 6c b9 70 60 fe ba
       -0.026826946 0.0010709642 -0.00022548987 -0.0019407403
0002b0 b1 75 97 3c ca c8 8e bb 52 de 85 3c 3e 0f 31 3a
       0.018488737 -0.004357432 0.016341362 0.00067542854
0002c0 44 65 ed bc 17 69 11 bc 30 14 2c bb 6a 03 61 3c
       -0.028978951 -0.008875153 -0.002625715 0.013733724
0002d0 d3 27 a7 bc e6 6d 00 3d d3 48 f6 bc cd 3e 55 bc
       -0.020404732 0.031354807 -0.030064022 -0.013015461
0002e0 5d b9 91 3c 11 8d 99 3c ea ea e7 3c 28 0c 6b 3c
       0.017788583 0.018744024 0.028310258 0.01434616
0002f0 62 ac 0d bd d0 b3 f3 3c 3b 4a cb 3c bb aa d0 bc
       -0.034588225 0.029748827 0.02481567 -0.025472036
000300 44 4f 6e 3b e1 14 02 3d 87 93 45 3c 45 41 92 bb
       0.0036363164 0.031758193 0.012059099 -0.004463347
000310 5e cd f4 3c ba 00 05 bd cb 31 b2 3b d4 49 66 3b
       0.029883083 -0.032471396 0.0054380647 0.003513922
000320 0d 24 bd 3c 7e 85 fc bc 54 b2 d3 3b dc fa fd bc
       0.02308848 -0.030825373 0.0064604674 -0.031003408
000330 e8 75 fe bc 50 a7 13 3b 98 92 c3 bc 85 95 58 bc
       -0.031062081 0.0022530146 -0.023873612 -0.013219242
000340 8d 1e 56 3c 52 e1 0e 3d 72 45 03 bd 58 f6 c8 3c
       0.013068807 0.03488285 -0.03204865 0.024531528
000350 aa 13 8e bb 82 66 69 3c 2f b4 53 3c fb 1e 43 3c
       -0.00433584 0.014245631 0.012921377 0.011909242
000360 05 2a 21 bc 39 6a 65 3c 8a f6 6f 3c da d5 df bb
       -0.009836678 0.014002376 0.014646182 -0.006830913
000370 17 26 c1 3c b8 48 1e bc 42 da 6d 3c 0d 82 0d 3d
       0.023577733 -0.009660892 0.014517369 0.034547854
000380 57 46 cd 3c a9 51 47 bc d9 05 86 bb 60 1e e6 3b
       0.025057955 -0.012165465 -0.0040900526 0.007022664
000390 01 85 69 3b a9 23 b1 3c 54 6c 42 3c 22 13 07 bd
       0.0035632255 0.02162345 0.011866648 -0.03297723
0003a0 85 4e c7 bc 1a c4 3e 3c c1 a1 0f bd 22 64 b9 bc
       -0.024329433 0.011643434 -0.03506637 -0.022630755
0003b0 61 44 35 3b c0 03 05 bd 6a a9 b9 bc a8 e0 66 3c
       0.0027659165 -0.03247428 -0.02266379 0.014091648
0003c0 73 6e cf ba 89 db 11 3c 18 0d 29 3c 4c 44 57 bc
       -0.0015825763 0.008902439 0.010318063 -0.013138842
0003d0 86 0d 00 3c df b7 f3 3c f3 a3 e5 3c 37 2a 4f 3b
       0.007815724 0.029750763 0.028032279 0.0031610855
0003e0 97 29 cc 3c d5 fc 31 bb 76 2c df bb 00 4b f4 bb
       0.024922175 -0.0027158756 -0.00681072 -0.0074552298
0003f0 bb 75 11 bb 14 74 a4 bc 2d 1c a5 3c 95 35 a1 bb
       -0.0022195417 -0.020074882 0.020155037 -0.0049197176

conv2.bias f4 [64]
000000 5a f2 3a bc db 46 94 bc ed b5 fc 3c 98 bf dd bc
       -0.01141032 -0.018100193 0.030848468 -0.027068898
000010 8a f0 f8 bc 66 dd be 3c ef 2f c4 bc 18 fe be 3c
       -0.030388135 0.02329893 -0.023948638 0.02331452
000020 68 48 23 3b aa 21 5d 3c f2 20 de 3c 46 38 93 3c
       0.0024914984 0.013496796 0.027115319 0.01797117
000030 b4 0c a0 3c d8 8a 9c 3c 6c 65 54 bc 1e 80 cf 3c
       0.019537307 0.019109175 -0.012963634 0.025329646
000040 a0 90 c7 bc 5e 91 49 3c da f1 0e 3d d6 a5 a0 bc
       -0.024360955 0.012302725 0.034898616 -0.019610327
000050 d6 4a 64 3c b3 a6 cd bc 83 cf 8a 3b ea 15 36 3c
       0.013933858 -0.025103902 0.004236163 0.011113623
000060 27 9b d3 bc d9 65 66 3c c4 cb 9c ba 73 66 2f 3c
       -0.025830818 0.014062368 -0.0011962582 0.010705578
000070 22 94 03 3d 04 0d 9e bc 3f 2e e4 3c 31 87 8d bc
       0.032123692 -0.019293316 0.027854083 -0.017276378
000080 10 1a d0 3b 0b 0c 1f bc 47 26 dd bc fb 24 51 bc
       0.006350763 -0.009707461 -0.026995791 -0.0127651645
000090 93 0b 0d 3d e6 03 c0 bc 79 f7 00 bd b2 c6 06 bd
       0.034434866 -0.023439359 -0.03148601 -0.032904334
0000a0 da 3c 93 3c 97 b3 ca 3c b4 b8 59 bc 1a d2 3e bc
       0.017973352 0.024743838 -0.013288666 -0.011646772
0000b0 f1 bc 9e 3c 7b 80 e3 3c 73 57 0f bd 02 8e aa bc
       0.019377204 0.027771225 -0.034995507 -0.020819668
0000c0 df bf fb 3c 69 cd 5c bc 41 56 28 bc 0a dd 06 3c
       0.03073114 -0.013476708 -0.010274471 0.008231411
0000d0 84 e5 a6 3b cf a7 ff bc 56 ae da 3c 6b 50 3e bc
       0.0050932784 -0.031207947 0.026694458 -0.011615853
0000e0 8c 68 79 bc 43 e6 2d bc 00 d0 86 bc f8 5c b7 bb
       -0.01522268 -0.010613981 -0.016456604 -0.0055957995
0000f0 c6 0f c8 bc 9d c9 a1 bb 78 6a 85 3c 32 b2 89 bc
       -0.024421584 -0.0049373643 0.01628612 -0.016808603

fc1.weight f4 [128, 784]
000000 a6 a4 00 bd 8e 8f fa 3c 57 d4 aa bc b3 97 58 bc
       -0.03140702 0.03058603 -0.020853205 -0.013219762
000010 48 ad 0d 3d 2c 3a 96 3c 83 ff d3 bc 8c 26 8b bc
       0.034589082 0.018338285 -0.025878673 -0.016986154
000020 2e fb d8 bc c3 7f f1 bc 27 dc 10 3d a5 2e 32 bc
       -0.02648696 -0.029479867 0.035366204 -0.010875379
000030 41 19 ff bc 21 70 fe 3c b7 15 4a bc 0c ae cc bc
       -0.031139972 0.031059327 -0.012334279 -0.024985336
000040 27 91 9a bc bc d7 11 3d f3 e7 15 bc 65 d7 d0 bb
       -0.018868042 0.03560613 -0.009149539 -0.0063733333
000050 2e 09 7b 3c 0d d3 04 bd 03 20 a7 3c ba f4 ff bc
       0.015322013 -0.032427836 0.020401007 -0.031244624
000060 d3 4e f1 bb 7e 26 f4 bc 73 84 66 3c a3 27 9a 3c
       -0.007364133 -0.02980351 0.014069664 0.018817728
000070 a5 b0 51 bb fe 7e 00 3d 05 90 a2 bc 53 14 79 bc
       -0.0031996157 0.03137111 -0.019844064 -0.0152026
000080 05 2d 2c bc a6 38 b7 bc 14 0a e7 bb 17 64 cc 3b
       -0.01050878 -0.02236588 -0.007050762 0.0062375176
000090 5c 38 a3 3c 90 ee 52 3d 5f eb 3d 3d 9b 9b 82 3d
       0.019924335 0.051497042 0.046367045 0.06377336
0000a0 06 5d 57 3c b9 48 c1 3b 8a 38 35 3d 30 c8 e1 3c
       0.013144737 0.005898562 0.044243373 0.027561277
0000b0 c5 66 ad 3c a8 cc c9 bc e1 82 25 3d 65 3e 8a 3d
       0.021167168 -0.02463372 0.04040802 0.06750182
0000c0 0e 7b 6f 3d 4c 2b 91 3d 10 70 60 3b bd 95 da bb
       0.058466963 0.07088336 0.0034246482 -0.006670682
0000d0 a5 61 3d 3b 35 7a a1 bc d1 cb e5 3c 45 e3 cb 3c
       0.0028897312 -0.019711593 0.028051289 0.024888644
0000e0 ae b1 c9 3b dc 21 e0 3b 3d fc d4 bc 78 de 80 bc
       0.0061552143 0.006839974 -0.025999183 -0.015731081
0000f0 02 1f 1f bc 44 b0 fd bc e1 e5 d1 ba 06 a3 5b 3d
       -0.009711983 -0.030967839 -0.0016013944 0.05362227
000100 03 7e 28 3d 33 8e 53 bc b3 3c 8a 3d cb c0 8e 3c
       0.0411358 -0.012912321 0.06749859 0.017425915
000110 a7 08 7e 3c ad 9f c5 3d 6f 46 dd 3d bf 82 8b 3e
       0.015504993 0.09649596 0.1080445 0.2724819
000120 78 41 0f bc 6b 83 9e bc 14 f0 d0 3d 45 f2 07 3e
       -0.008743636 -0.019349774 0.10202041 0.13276012
000130 f8 9a eb 3d b8 dd 9e 3d 27 f7 95 3d 7a c4 a8 3b
       0.11504167 0.07757133 0.07322531 0.005150375
000140 36 7a de 3c f4 25 bc bc 48 2f ef 3c 08 4c 04 bd
       0.027157884 -0.022967316 0.02919735 -0.03229907
000150 ca 92 3b bb ac 04 93 3c 5c 35 35 bc 1e 1e be 3a
       -0.0028621429 0.017946564 -0.011060085 0.0014504825
000160 4f bd 2c 3c 5f 76 f4 3d e3 0a 8e 3c 96 55 2f 3d
       0.010543182 0.1193664 0.017339176 0.04280623
000170 2b a2 fc 3d 61 52 47 3d 68 95 0e 3e fb 73 16 3e
       0.123356186 0.048662547 0.13924181 0.1469268
000180 75 03 43 3e 8f 6f 71 3e 07 00 90 3d 5b 6c e6 3d
       0.19044288 0.23577712 0.07031255 0.11251136
000190 c4 4b ef bc 5d c7 1c bd 94 98 d9 bd 9a 28 8b bd
       -0.029210933 -0.038276065 -0.10624805 -0.067948535
0001a0 0e 59 b7 3c 6a 63 ab 3a d4 3d ed 3d 10 cf db 3d
       0.022381332 0.0013075892 0.115840584 0.107328534
0001b0 79 f0 bf 3d be ef d6 3d 55 48 92 3c de 20 8f 3c
       0.093720384 0.10494946 0.017856756 0.017471727
0001c0 73 b7 f4 3c e5 39 19 bc 46 f6 9d 3c 10 fb 28 bb
       0.029872632 -0.009352182 0.019282471 -0.002578441
0001d0 be 71 1f 3e a7 25 27 3e 52 d9 9a 3d 0c e9 26 3e
       0.15570733 0.16322957 0.07560982 0.16299838
0001e0 15 ba c5 3d 6a a1 94 3d b4 4f 85 bb 34 3c 8a 3d
       0.09654633 0.0725735 -0.0040683392 0.06749764
0001f0 d4 36 83 3d 3e ea fc 3d bc ef a8 3c ea 47 08 bd
       0.06406942 0.12349366 0.020622127 -0.033271708
000200 ae 12 21 be f2 63 5b be 63 22 8b be 98 bd 5e be
       -0.15729782 -0.21424845 -0.27174672 -0.21752012
000210 ab 4c 4c be 54 27 ad bd 40 37 33 be 52 df d0 bd
       -0.19951122 -0.08454767 -0.17501545 -0.10198845
000220 30 ac e0 bc 23 1d e3 bc 10 96 ef 3a 5c 30 ba 3c
       -0.027425855 -0.027723854 0.0018278975 0.022728138
000230 01 12 61 bb 03 1e d8 bc 57 e8 2f 3d f4 de 2a 3d
       -0.0034343007 -0.026381498 0.042946186 0.04171653
000240 0e be 05 bb be 20 0a 3e 53 45 d9 3d 97 4c 5d 3d
       -0.002040747 0.13489053 0.10608926 0.05402812
000250 e6 79 68 3d 8c 7b 3e 3d e6 44 4f 3b 2f ca 56 3d
       0.056756876 0.046504542 0.003162676 0.05243891
000260 13 80 14 3d 4d 9f c6 3c 71 23 95 3c 6a 5f 42 bc
       0.036254954 0.024245882 0.018205376 -0.011863569
000270 e5 23 58 bd 0a 81 4e be 75 7d a9 be ea 68 8c be
       -0.052768607 -0.20166412 -0.3310353 -0.27423793
000280 6c be a8 be 2e fc a7 be 81 66 9e be c5 6d 9a be
       -0.3295778 -0.32809585 -0.3093758 -0.30161873
000290 ba ba 39 be 98 c9 b7 bd 6c 00 82 bd 7e b0 91 3b
       -0.18137637 -0.08973998 -0.06347737 0.0044460883
0002a0 f4 a2 78 bc c7 91 3d bb 38 f3 a5 3d a6 82 51 3e
       -0.01517557 -0.0028926001 0.08103031 0.20459995
0002b0 56 3e 96 3e 53 3f 4b 3e 69 56 0f 3d a3 0d 42 3d
       0.29344434 0.19848375 0.034994517 0.047376286
0002c0 73 a6 47 3d 0d 7b 01 3d d0 e6 dc 3b df 68 78 3d
       0.048742723 0.03161149 0.006741382 0.060646888
0002d0 81 f9 b9 3c 59 13 22 bc e6 68 ad bc d5 d5 b7 bd
       0.02270198 -0.009892308 -0.021168184 -0.08976332
0002e0 ae 94 6f bc 11 5a ba bb a2 ae 53 be 5d ef aa be
       -0.01462285 -0.0056870063 -0.20672086 -0.33385745
0002f0 6d 71 ae be 65 07 91 be ee c5 d0 be de a5 9d be
       -0.34070912 -0.28325954 -0.40776008 -0.3079061
000300 da 7f 89 be 38 5c 57 be 93 c3 3f be ae ff ce bd
       -0.26855356 -0.21031272 -0.1872695 -0.10107361
000310 e4 a3 da 3b 9b e4 24 3d 5d 8a e0 3d c0 2f b9 3e
       0.0066723693 0.040257078 0.10963891 0.36169243
000320 f9 96 be 3e 86 83 1e 3e a7 e6 23 3e a0 ed c7 3c
       0.37224558 0.1547986 0.16005956 0.0244053
000330 e4 59 03 3d 68 f3 83 3d 72 62 bf 3c 16 0d c7 bc
       0.03206815 0.064429104 0.023362372 -0.024298232
000340 e5 06 ff bc 12 80 13 bd 11 65 0e 3d 06 7d 29 3d
       -0.031131217 -0.03601081 0.034764353 0.041378997
000350 3e c2 00 3d 62 ab bf bc d4 09 8e bd 66 22 7e be
       0.031435244 -0.023397151 -0.06935468 -0.2481781
000360 9a a3 bd be b1 e6 c8 be 7b b8 b5 be 81 fa d4 be
       -0.3703888 -0.39238504 -0.3549231 -0.4159737
000370 00 a2 c7 be 34 1e 89 be 92 d6 f3 bd 6a f5 ce bd
       -0.38990784 -0.26780856 -0.119061604 -0.10105403
000380 20 87 a8 3c 13 ee 34 3d b9 ac d0 3d 16 5b 9e 3e
       0.020572245 0.044172358 0.10189194 0.30928868
000390 31 d1 d0 3e c0 8e 4a 3e 37 e0 20 3e 20 7a f8 bc
       0.407846 0.19781017 0.15710531 -0.030331671
0003a0 1f ef e1 bc 9f e7 ca bd ed 72 b8 bd 69 21 f3 bd
       -0.027579842 -0.099074595 -0.09006295 -0.11871607
0003b0 8b f7 14 bd 4d bb cb bc 01 70 da 3d 0b ba ca 3d
       -0.036368888 -0.024869585 0.10665894 0.09898766
0003c0 dd 37 03 3e 97 2a e4 3d a7 74 47 bd e1 1b 96 be
       0.12814279 0.11140936 -0.048695233 -0.29318145
0003d0 c9 02 c3 be fd 52 d4 be cb 64 c0 be 50 9c d8 be
       -0.38088062 -0.41469565 -0.375769 -0.42306757
0003e0 b0 bf d2 be 43 c6 b0 be b4 85 42 be 66 bd 69 bd
       -0.4116187 -0.34526262 -0.18996316 -0.05706539
0003f0 59 72 bc 3c bf f9 51 3d 1d cd 1f 3e ef 5e 6a 3e
       0.023003744 0.051263567 0.15605588 0.22887777

fc1.bias f4 [128]
000000 48 0b de 3d e3 b5 65 3d 08 16 42 be 34 07 a8 3d
       0.108419955 0.056081664 -0.18953717 0.08204499
000010 19 04 bd be 46 1a 9e 3e 95 53 93 3e 63 df a2 bb
       -0.3691719 0.3087942 0.28774706 -0.0049704774
000020 31 0e 0a be 35 2f 91 3e 69 60 78 3e 68 48 20 3e
       -0.13481976 0.2835633 0.24255528 0.15652621
000030 74 9e a2 3d bb 11 69 bd 06 bc 62 3e 45 21 7b be
       0.07940379 -0.056901675 0.22142038 -0.2452441
000040 c3 e5 43 be c3 af a9 bd 5b c8 d0 3e ba 43 5e 3e
       -0.19130616 -0.08285477 0.4077786 0.21705523
000050 be 3b 0d 3d 28 bf 85 3b 85 bc 94 3e 11 e5 b6 bd
       0.034480803 0.0040816255 0.2905008 -0.0893041
000060 eb c3 f0 bd 27 57 a6 be 42 6a 8b 3e a3 af 96 3c
       -0.117561184 -0.32488367 0.27229506 0.018394297
000070 0f bf 45 be 98 d4 03 bf 8c 72 54 be b0 eb 64 bd
       -0.19311164 -0.5149627 -0.20746821 -0.05588883
000080 77 76 30 be 38 34 88 3c 4e 66 2c bc bf 3f 9a 3e
       -0.17232691 0.016626462 -0.010522438 0.3012676
000090 b9 99 64 3d 86 72 b8 3d fc 8f 29 3e 4d 66 fa bb
       0.055810664 0.090062186 0.16558832 -0.0076415897
0000a0 be 9b 4f 3e 79 b5 01 be ed f5 27 3e b1 99 31 3e
       0.20274255 -0.12666883 0.16402407 0.17343785
0000b0 34 f7 95 be db c2 ad be a5 4d a9 3d 3f d2 00 bf
       -0.29290164 -0.33937725 0.08266763 -0.5032081
0000c0 9c 84 27 be f1 03 0d 3e ac 33 c5 be b2 60 3d 3e
       -0.1635918 0.13771035 -0.38515985 0.18493918
0000d0 5a 8d 1e 3e 9e 7d 33 3e 7a 86 3a 3e 16 24 ab 3d
       0.15483609 0.17528388 0.18215361 0.08356492
0000e0 4f 48 7e 3e 7d 7d 6e 3e 3e 44 77 bd 64 9c d6 3e
       0.24832271 0.23290057 -0.060367815 0.41916192
0000f0 5c 5f 94 bd 0a dc 81 bc 88 64 84 bd f0 40 1d 3f
       -0.07244751 -0.015851993 -0.06464487 0.6142721
000100 81 b0 aa bc 2c 3b 0c be 4c 1c 75 be 0d 37 36 3e
       -0.020836117 -0.13694447 -0.23936576 0.17794438
000110 ea 4a 8d bd ae e6 59 3d 57 45 ed 3e ac c3 93 bd
       -0.06899054 0.05319851 0.46341965 -0.07215056
000120 97 58 9e bc 08 12 8a bc b2 e9 44 3e a1 b5 37 be
       -0.019329352 -0.016854301 0.19229773 -0.1794038
000130 c0 4e 0c 3e 66 97 1e 3e 31 07 e4 3e 4f 40 0e be
       0.13701916 0.15487441 0.44536737 -0.1389172
000140 18 62 94 be 4d 95 b6 3e f0 24 ae 3a 6f 6b 1f be
       -0.2898109 0.35660782 0.0013286155 -0.15568326
000150 06 4a 17 3d 64 3c 8c 3e 70 4d 6a bd 90 a1 80 be
       0.03693583 0.27389824 -0.057202756 -0.25123262
000160 5b a3 ba be 5a eb 92 be 2b 36 8f bd 7e c0 03 be
       -0.36452755 -0.28695184 -0.069927536 -0.12866399
000170 b8 e3 e6 bd 5e b2 b2 bd 8b a5 03 be 95 9f b7 3e
       -0.11273903 -0.08725427 -0.12856118 0.3586394
000180 c2 62 15 3e 66 3c b3 3e ba 59 11 bf 37 2c e8 3d
       0.14588454 0.35007018 -0.56777537 0.11336558
000190 8c 05 bf 3d 07 dc 16 be e8 21 54 3e 2c 66 ce bd
       0.0932723 -0.14732371 0.20716059 -0.100780815
0001a0 9d 10 8d 3e 5a 10 1d 3e 56 bd 67 3e b0 f7 97 be
       0.27551737 0.15338269 0.2263082 -0.29681158
0001b0 45 d3 e9 3d ce 9b 35 3c 72 ea 95 3e ce f6 7b bb
       0.114172496 0.01108451 0.2928043 -0.0038446668
0001c0 84 56 c8 bd 3c 8f 39 be f4 3b ba 3d db 5e c3 bd
       -0.097821265 -0.18121046 0.090934664 -0.095395766
0001d0 13 c6 57 3d fe 6a cf be b8 00 b7 be a7 b1 03 3e
       0.052679133 -0.40511316 -0.35742736 0.12860738
0001e0 1d 2c d9 bd a7 93 84 be ac 90 58 3e 74 a4 15 be
       -0.10604117 -0.258939 0.21148938 -0.14613515
0001f0 ee d1 e9 3d 60 40 86 3e 9b cf 88 3e 96 f3 73 be
       0.11416994 0.2622099 0.2672089 -0.2382339

fc2.weight f4 [10, 128]
000000 2d 27 05 bf 39 15 c9 be 89 27 d7 3d 7e c1 dd be
       -0.520129 -0.39274004 0.105055876 -0.43311685
000010 b7 86 56 3e 62 e7 87 be ca 40 1f be 5b 64 e0 be
       0.20949827 -0.2654372 -0.15552059 -0.43826565
000020 58 57 a2 be 78 50 91 be 24 d7 81 3e e0 33 a8 be
       -0.31707263 -0.28381705 0.25359452 -0.32852077
000030 b7 95 a7 3e 3c 9a ad 3d c3 24 81 3e 10 d3 d8 3d
       0.3273141 0.084766835 0.2522336 0.10587132
000040 b7 90 c4 3c be 9a e1 be a8 a0 f3 be fd 49 2c bf
       0.023994787 -0.4406337 -0.47583508 -0.673004
000050 c8 4d 14 3e 9e 41 cc 3c 07 89 b3 3e 1e e4 1a 3e
       0.14482796 0.024933632 0.3506548 0.15126082
000060 19 10 23 bf 56 ed 3e 3e 93 84 12 bf 89 ae f4 3d
       -0.6369644 0.18645224 -0.5723354 0.119473524
000070 c9 19 b5 be d1 62 1a 3e 0d 89 14 3e 78 8a 3a bf
       -0.35371235 0.15076758 0.14505406 -0.72867537
000080 a2 bb e1 be 7f c4 3f 3e b9 73 30 bf ac 9a e6 bd
       -0.44088465 0.18727301 -0.6892658 -0.1125997
000090 be 24 0a 3e 47 1f 56 3e 57 3b 27 be b9 6f b8 be
       0.13490579 0.20910369 -0.1633123 -0.36022738
0000a0 e3 b6 cf be 32 8f 68 bd 78 76 c0 bd 61 69 05 3d
       -0.4056922 -0.056777187 -0.09397596 0.0325712
0000b0 37 8d 01 3e e4 ec 2b 3e cf 37 d0 be a9 9f 47 3e
       0.12651525 0.16789585 -0.4066758 0.194945
0000c0 80 9d 3e 3e b8 3d 0a bf d2 47 2d bf 3f 80 2c be
       0.18614769 -0.54000425 -0.67687714 -0.16845797
0000d0 ce 01 cb 3d 09 8d 13 3e 57 4d ab 3e 00 dc 35 3e
       0.099124536 0.1440927 0.33457443 0.17759705
0000e0 bb 44 a1 be a7 51 63 be db ce 0c bf 5f 97 4c 3e
       -0.3149775 -0.22199117 -0.55003136 0.19979618
0000f0 21 ad 6d 3e 76 fd b3 be 67 18 76 3c c4 fa c4 be
       0.23210575 -0.35154313 0.015020466 -0.3847257
000100 7b 23 b9 be e7 61 4c be 28 65 12 bf 9f 86 13 bf
       -0.36159882 -0.19959222 -0.571856 -0.5762729
000110 97 ca 91 bd d1 d3 c0 3e 46 e7 da bc f9 09 c4 3d
       -0.07118719 0.37661603 -0.026721608 0.09572215
000120 0e bc 2e bf 2e e2 07 bf 45 01 aa 3d cc b7 a7 3d
       -0.682557 -0.530795 0.083010234 0.08189353
000130 a6 eb 74 3e de e4 73 3e 2b ec 25 bd 6c 2d 88 be
       0.23918018 0.23817775 -0.04050843 -0.26597154
000140 1e d7 12 bf 68 9b 82 3e 74 95 2d bf 73 7c 93 3e
       -0.5735949 0.2550919 -0.6780617 0.28805885
000150 92 ef 70 3e 2e 60 03 bf f5 1a 2e bf d1 38 38 3d
       0.23528889 -0.51318634 -0.68009883 0.04497606
000160 a2 77 34 3e 77 81 f9 3d 00 64 b8 3d 19 3d 09 3c
       0.17623761 0.121828966 0.090034485 0.008376383
000170 90 b4 cb 3d ef 76 59 be e0 44 00 bf 60 17 1b bf
       0.09946549 -0.21236776 -0.50105095 -0.6058254
000180 62 6c 09 bf 0c d0 12 bf 42 48 a6 bd bd 2c b4 3d
       -0.53681004 -0.57348704 -0.08119251 0.08797596
000190 1c 1f a1 3e 92 c7 15 3e 51 50 0e bf 68 0c f6 3d
       0.31469047 0.14626911 -0.55591303 0.12014085
0001a0 c2 92 28 bf 52 20 e0 be 5f d0 ef 3d d8 b7 b3 3d
       -0.65848935 -0.43774658 0.117096655 0.087753
0001b0 9d ef b6 be 65 c5 01 bf 8b 19 6b 3e 8d 86 48 be
       -0.35729685 -0.50691825 0.22958963 -0.19582577
0001c0 6a 81 3d 3e ac 68 ba 3d 42 a3 ca be f0 fb 02 bf
       0.18506399 0.09101996 -0.3957768 -0.51165676
0001d0 3d e9 20 3e 97 33 7d bd ba b0 b1 3d 57 c7 3f bf
       0.15713973 -0.061816778 0.08676286 -0.74913543
0001e0 e4 02 8d be 95 70 08 3e c1 e9 50 be d0 31 c3 3d
       -0.27541268 0.13324197 -0.2040167 0.09530985
0001f0 99 48 14 bf 8b 33 ce bc 45 c8 09 bf e4 15 df 3d
       -0.57923275 -0.025171062 -0.5382121 0.10892847
000200 de a1 bc 3e 82 25 a3 3e e8 72 93 be 0a c0 d5 be
       0.36842245 0.31864554 -0.28798604 -0.41748077
000210 cd d5 e8 be 14 67 89 3d 8b ae 0f 3e 8b 1d 9a 3e
       -0.45475617 0.06709114 0.14031427 0.30100664
000220 8c df e8 bd 6b 6a d5 3d 6d 22 c6 3e ef f6 52 3e
       -0.11370763 0.10420688 0.3869814 0.2060201
000230 ad 01 75 be 99 87 9d be 41 2f d6 be 42 68 0a 3e
       -0.2392642 -0.30767515 -0.41832927 0.13516334
000240 06 12 78 3e ff e5 0f 3e 2a f5 6e 3e 82 f6 98 3e
       0.24225625 0.1405258 0.2333571 0.2987557
000250 d8 cc 2f bf a5 47 33 be 52 fe a5 be 09 cd 3e 3d
       -0.6867194 -0.17507799 -0.32420594 0.046582256
000260 5d cb f1 be bb 99 0f bf 80 17 a9 3e d9 ae e6 be
       -0.47225466 -0.5609395 0.33025742 -0.45055273
000270 76 cc 8f be d4 95 df be a5 9c c2 3d 9f 76 52 3d
       -0.2808568 -0.43668997 0.09502534 0.051382657
000280 f7 ca da 3d 6e cf db be 30 d1 7c 3e 48 40 9b be
       0.10683244 -0.42931694 0.24689174 -0.3032248
000290 7d 30 18 bf 08 89 ff 3e 1a 09 65 3d 09 64 02 3d
       -0.5944899 0.49909234 0.055916883 0.031833682
0002a0 f3 ad 15 bf 93 52 df 3d a6 bd e6 3e 24 75 9f 3e
       -0.5846855 0.10904422 0.45066565 0.3114406
0002b0 86 3e 0e bf a2 d9 c8 be 9e fa f2 3d 46 0f da be
       -0.55564153 -0.3922854 0.11864208 -0.42589778
0002c0 b8 a1 d2 be 39 1a 88 3e b9 b5 e0 3d 91 32 a6 be
       -0.41139007 0.26582506 0.10972161 -0.32460454
0002d0 4d e9 2d bf 77 de 10 bf 5b 34 b3 be 48 d6 04 3e
       -0.67934114 -0.56589454 -0.35000882 0.12972367
0002e0 da e4 de be 26 ed b2 be 5b 01 15 3e 23 d8 48 3f
       -0.43533975 -0.34946555 0.14551298 0.784548
0002f0 ce a0 b7 3d 9f d8 97 3e d6 8e 83 be cb 83 0c 3e
       0.08966218 0.29657456 -0.25694913 0.1372215
000300 b5 ed 03 bf 08 e0 28 bf b3 e8 de 3d 41 b9 ac 3e
       -0.5153459 -0.65966845 0.108842276 0.33735088
000310 27 c6 e6 be f9 db b2 be 5b 92 c1 3e a3 37 f4 be
       -0.45073053 -0.3493345 0.37806973 -0.47698697
000320 42 2b 61 3e db 01 65 3e a6 0a 74 be ff 4d 69 3d
       0.21989158 0.22363989 -0.23832187 0.05695915
000330 02 65 8d 3e 64 02 b0 be 30 7c 33 3e e2 4a 1b 3e
       0.27616125 -0.34376824 0.17527843 0.15165284
000340 a1 b3 cd 3d 47 65 51 be 7c 00 20 3e 0e 4e 1c bf
       0.10044027 -0.2044879 0.15625185 -0.610566
000350 0b 74 9c 3d 74 2b 0c bf f5 7e 95 3c 29 43 1a be
       0.07639321 -0.54753804 0.018249014 -0.15064682
000360 95 e8 f2 be 42 e4 7f 3d 62 81 45 bf 35 f8 e4 3d
       -0.4744307 0.062473543 -0.7715055 0.11180154
000370 8a 2d 30 bf 3a 2a 0d bf 8e 68 87 3e f8 fd 0f bf
       -0.6881949 -0.5514256 0.26446956 -0.562469
000380 3a 2a d2 3d 38 01 8e be ff a5 c8 be a9 20 98 3d
       0.1026196 -0.27735305 -0.39189145 0.074281044
000390 ce 5a 50 bf f5 b4 0b bf e3 3d e3 3d 6a d1 8e bc
       -0.81388557 -0.54572994 0.11095788 -0.01743384
0003a0 a3 fb 7d 3e 21 95 7b 3e 77 f0 3e bd 78 7f 0c bf
       0.24803023 0.24568607 -0.046616044 -0.54882
0003b0 8b f6 bd bd c3 19 44 3e 7f ba 87 be f0 18 1b 3e
       -0.0927554 0.19150452 -0.26509473 0.15146232
0003c0 69 7e b0 be b6 0c 0d be 66 0d bd 3e e7 ef 39 3e
       -0.34471443 -0.1377438 0.36924285 0.18157922
0003d0 a7 cd f5 3d 4f ce a4 3d 83 01 5e 3d 4c 1f 8b be
       0.12002116 0.08047163 0.05420066 -0.27172315
0003e0 ed 67 83 3d 1f 1e a1 be f7 3b 1d 3e e5 50 8c bc
       0.06416307 -0.31468293 0.15354906 -0.017128417
0003f0 44 92 05 3e 91 2e 07 3f 12 b1 10 3f b9 f5 bc be
       0.13044077 0.5280543 0.5652019 -0.36906222

fc2.bias f4 [10]
000000 2e b7 2e be f3 17 c1 3e 15 08 5d be 15 96 57 be
       -0.17062065 0.37713584 -0.21585114 -0.21053346
000010 71 2b c3 3e 77 92 24 3e 97 09 e6 bc 9c 5e a4 bd
       0.3811908 0.16071497 -0.028080745 -0.08025858
000020 c5 28 e5 bd c3 28 46 3c
       -0.11189417 0.012094679

bn.weight f4 [32]
000000 00 00 80 3f 00 00 80 3f 00 00 80 3f 00 00 80 3f
       1.0 1.0 1.0 1.0
000010 00 00 80 3f 00 00 80 3f 00 00 80 3f 00 00 80 3f
       1.0 1.0 1.0 1.0
000020 00 00 80 3f 00 00 80 3f 00 00 80 3f 00 00 80 3f
       1.0 1.0 1.0 1.0
000030 00 00 80 3f 00 00 80 3f 00 00 80 3f 00 00 80 3f
       1.0 1.0 1.0 1.0
000040 00 00 80 3f 00 00 80 3f 00 00 80 3f 00 00 80 3f
       1.0 1.0 1.0 1.0
000050 00 00 80 3f 00 00 80 3f 00 00 80 3f 00 00 80 3f
       1.0 1.0 1.0 1.0
000060 00 00 80 3f 00 00 80 3f 00 00 80 3f 00 00 80 3f
       1.0 1.0 1.0 1.0
000070 00 00 80 3f 00 00 80 3f 00 00 80 3f 00 00 80 3f
       1.0 1.0 1.0 1.0

bn.bias f4 [32]
000000 00 00 00 00 00 00 00 00 00 00 00 00 00 00 00 00
       0.0 0.0 0.0 0.0
000010 00 00 00 00 00 00 00 00 00 00 00 00 00 00 00 00
       0.0 0.0 0.0 0.0
000020 00 00 00 00 00 00 00 00 00 00 00 00 00 00 00 00
       0.0 0.0 0.0 0.0
000030 00 00 00 00 00 00 00 00 00 00 00 00 00 00 00 00
       0.0 0.0 0.0 0.0
000040 00 00 00 00 00 00 00 00 00 00 00 00 00 00 00 00
       0.0 0.0 0.0 0.0
000050 00 00 00 00 00 00 00 00 00 00 00 00 00 00 00 00
       0.0 0.0 0.0 0.0
000060 00 00 00 00 00 00 00 00 00 00 00 00 00 00 00 00
       0.0 0.0 0.0 0.0
000070 00 00 00 00 00 00 00 00 00 00 00 00 00 00 00 00
       0.0 0.0 0.0 0.0

bn.running_mean f4 [32]
000000 00 00 00 00 00 00 00 00 00 00 00 00 00 00 00 00
       0.0 0.0 0.0 0.0
000010 00 00 00 00 00 00 00 00 00 00 00 00 00 00 00 00
       0.0 0.0 0.0 0.0
000020 00 00 00 00 00 00 00 00 00 00 00 00 00 00 00 00
       0.0 0.0 0.0 0.0
000030 00 00 00 00 00 00 00 00 00 00 00 00 00 00 00 00
       0.0 0.0 0.0 0.0
000040 00 00 00 00 00 00 00 00 00 00 00 00 00 00 00 00
       0.0 0.0 0.0 0.0
000050 00 00 00 00 00 00 00 00 00 00 00 00 00 00 00 00
       0.0 0.0 0.0 0.0
000060 00 00 00 00 00 00 00 00 00 00 00 00 00 00 00 00
       0.0 0.0 0.0 0.0
000070 00 00 00 00 00 00 00 00 00 00 00 00 00 00 00 00
       0.0 0.0 0.0 0.0

bn.running_var f4 [32]
000000 00 00 80 3f 00 00 80 3f 00 00 80 3f 00 00 80 3f
       1.0 1.0 1.0 1.0
000010 00 00 80 3f 00 00 80 3f 00 00 80 3f 00 00 80 3f
       1.0 1.0 1.0 1.0
000020 00 00 80 3f 00 00 80 3f 00 00 80 3f 00 00 80 3f
       1.0 1.0 1.0 1.0
000030 00 00 80 3f 00 00 80 3f 00 00 80 3f 00 00 80 3f
       1.0 1.0 1.0 1.0
000040 00 00 80 3f 00 00 80 3f 00 00 80 3f 00 00 80 3f
       1.0 1.0 1.0 1.0
000050 00 00 80 3f 00 00 80 3f 00 00 80 3f 00 00 80 3f
       1.0 1.0 1.0 1.0
000060 00 00 80 3f 00 00 80 3f 00 00 80 3f 00 00 80 3f
       1.0 1.0 1.0 1.0
000070 00 00 80 3f 00 00 80 3f 00 00 80 3f 00 00 80 3f
       1.0 1.0 1.0 1.0
